<?xml version="1.0" ?>
<net name="person-detection-0203" version="10">
	<layers>
		<layer id="0" name="image" type="Parameter" version="opset1">
			<data element_type="f16" shape="1,3,480,864"/>
			<output>
				<port id="0" precision="FP16">
					<dim>1</dim>
					<dim>3</dim>
					<dim>480</dim>
					<dim>864</dim>
				</port>
			</output>
		</layer>
		<layer id="1" name="image/reverse_input_channels/Concat85947_const" type="Const" version="opset1">
			<data element_type="f16" offset="0" shape="32,3,3,3" size="1728"/>
			<output>
				<port id="1" precision="FP16">
					<dim>32</dim>
					<dim>3</dim>
					<dim>3</dim>
					<dim>3</dim>
				</port>
			</output>
		</layer>
		<layer id="2" name="370" type="Convolution" version="opset1">
			<data dilations="1,1" output_padding="0,0" pads_begin="1,1" pads_end="1,1" strides="2,2"/>
			<input>
				<port id="0">
					<dim>1</dim>
					<dim>3</dim>
					<dim>480</dim>
					<dim>864</dim>
				</port>
				<port id="1">
					<dim>32</dim>
					<dim>3</dim>
					<dim>3</dim>
					<dim>3</dim>
				</port>
			</input>
			<output>
				<port id="2" precision="FP16">
					<dim>1</dim>
					<dim>32</dim>
					<dim>240</dim>
					<dim>432</dim>
				</port>
			</output>
		</layer>
		<layer id="3" name="data_add_4190143535/EltwiseUnsqueeze44221_const" type="Const" version="opset1">
			<data element_type="f16" offset="1728" shape="1,32,1,1" size="64"/>
			<output>
				<port id="1" precision="FP16">
					<dim>1</dim>
					<dim>32</dim>
					<dim>1</dim>
					<dim>1</dim>
				</port>
			</output>
		</layer>
		<layer id="4" name="371/variance/Fused_Add_" type="Add" version="opset1">
			<input>
				<port id="0">
					<dim>1</dim>
					<dim>32</dim>
					<dim>240</dim>
					<dim>432</dim>
				</port>
				<port id="1">
					<dim>1</dim>
					<dim>32</dim>
					<dim>1</dim>
					<dim>1</dim>
				</port>
			</input>
			<output>
				<port id="2" precision="FP16">
					<dim>1</dim>
					<dim>32</dim>
					<dim>240</dim>
					<dim>432</dim>
				</port>
			</output>
		</layer>
		<layer id="5" name="372" type="Clamp" version="opset1">
			<data max="6.0" min="0.0"/>
			<input>
				<port id="0">
					<dim>1</dim>
					<dim>32</dim>
					<dim>240</dim>
					<dim>432</dim>
				</port>
			</input>
			<output>
				<port id="1" precision="FP16">
					<dim>1</dim>
					<dim>32</dim>
					<dim>240</dim>
					<dim>432</dim>
				</port>
			</output>
		</layer>
		<layer id="6" name="374/mean/Fused_Mul_4598345985_const" type="Const" version="opset1">
			<data element_type="f16" offset="1792" shape="32,32,1,1" size="2048"/>
			<output>
				<port id="1" precision="FP16">
					<dim>32</dim>
					<dim>32</dim>
					<dim>1</dim>
					<dim>1</dim>
				</port>
			</output>
		</layer>
		<layer id="7" name="373" type="Convolution" version="opset1">
			<data dilations="1,1" output_padding="0,0" pads_begin="0,0" pads_end="0,0" strides="1,1"/>
			<input>
				<port id="0">
					<dim>1</dim>
					<dim>32</dim>
					<dim>240</dim>
					<dim>432</dim>
				</port>
				<port id="1">
					<dim>32</dim>
					<dim>32</dim>
					<dim>1</dim>
					<dim>1</dim>
				</port>
			</input>
			<output>
				<port id="2" precision="FP16">
					<dim>1</dim>
					<dim>32</dim>
					<dim>240</dim>
					<dim>432</dim>
				</port>
			</output>
		</layer>
		<layer id="8" name="data_add_419044190943537/EltwiseUnsqueeze44229_const" type="Const" version="opset1">
			<data element_type="f16" offset="3840" shape="1,32,1,1" size="64"/>
			<output>
				<port id="1" precision="FP16">
					<dim>1</dim>
					<dim>32</dim>
					<dim>1</dim>
					<dim>1</dim>
				</port>
			</output>
		</layer>
		<layer id="9" name="374/variance/Fused_Add_" type="Add" version="opset1">
			<input>
				<port id="0">
					<dim>1</dim>
					<dim>32</dim>
					<dim>240</dim>
					<dim>432</dim>
				</port>
				<port id="1">
					<dim>1</dim>
					<dim>32</dim>
					<dim>1</dim>
					<dim>1</dim>
				</port>
			</input>
			<output>
				<port id="2" precision="FP16">
					<dim>1</dim>
					<dim>32</dim>
					<dim>240</dim>
					<dim>432</dim>
				</port>
			</output>
		</layer>
		<layer id="10" name="375" type="Clamp" version="opset1">
			<data max="6.0" min="0.0"/>
			<input>
				<port id="0">
					<dim>1</dim>
					<dim>32</dim>
					<dim>240</dim>
					<dim>432</dim>
				</port>
			</input>
			<output>
				<port id="1" precision="FP16">
					<dim>1</dim>
					<dim>32</dim>
					<dim>240</dim>
					<dim>432</dim>
				</port>
			</output>
		</layer>
		<layer id="11" name="9048690489_const" type="Const" version="opset1">
			<data element_type="f16" offset="3904" shape="32,1,1,3,3" size="576"/>
			<output>
				<port id="1" precision="FP16">
					<dim>32</dim>
					<dim>1</dim>
					<dim>1</dim>
					<dim>3</dim>
					<dim>3</dim>
				</port>
			</output>
		</layer>
		<layer id="12" name="376" type="GroupConvolution" version="opset1">
			<data dilations="1,1" output_padding="0,0" pads_begin="1,1" pads_end="1,1" strides="1,1"/>
			<input>
				<port id="0">
					<dim>1</dim>
					<dim>32</dim>
					<dim>240</dim>
					<dim>432</dim>
				</port>
				<port id="1">
					<dim>32</dim>
					<dim>1</dim>
					<dim>1</dim>
					<dim>3</dim>
					<dim>3</dim>
				</port>
			</input>
			<output>
				<port id="2" precision="FP16">
					<dim>1</dim>
					<dim>32</dim>
					<dim>240</dim>
					<dim>432</dim>
				</port>
			</output>
		</layer>
		<layer id="13" name="data_add_419124191743539/EltwiseUnsqueeze44237_const" type="Const" version="opset1">
			<data element_type="f16" offset="4480" shape="1,32,1,1" size="64"/>
			<output>
				<port id="1" precision="FP16">
					<dim>1</dim>
					<dim>32</dim>
					<dim>1</dim>
					<dim>1</dim>
				</port>
			</output>
		</layer>
		<layer id="14" name="377/variance/Fused_Add_" type="Add" version="opset1">
			<input>
				<port id="0">
					<dim>1</dim>
					<dim>32</dim>
					<dim>240</dim>
					<dim>432</dim>
				</port>
				<port id="1">
					<dim>1</dim>
					<dim>32</dim>
					<dim>1</dim>
					<dim>1</dim>
				</port>
			</input>
			<output>
				<port id="2" precision="FP16">
					<dim>1</dim>
					<dim>32</dim>
					<dim>240</dim>
					<dim>432</dim>
				</port>
			</output>
		</layer>
		<layer id="15" name="378" type="Clamp" version="opset1">
			<data max="6.0" min="0.0"/>
			<input>
				<port id="0">
					<dim>1</dim>
					<dim>32</dim>
					<dim>240</dim>
					<dim>432</dim>
				</port>
			</input>
			<output>
				<port id="1" precision="FP16">
					<dim>1</dim>
					<dim>32</dim>
					<dim>240</dim>
					<dim>432</dim>
				</port>
			</output>
		</layer>
		<layer id="16" name="380/mean/Fused_Mul_4599145993_const" type="Const" version="opset1">
			<data element_type="f16" offset="4544" shape="16,32,1,1" size="1024"/>
			<output>
				<port id="1" precision="FP16">
					<dim>16</dim>
					<dim>32</dim>
					<dim>1</dim>
					<dim>1</dim>
				</port>
			</output>
		</layer>
		<layer id="17" name="379" type="Convolution" version="opset1">
			<data dilations="1,1" output_padding="0,0" pads_begin="0,0" pads_end="0,0" strides="1,1"/>
			<input>
				<port id="0">
					<dim>1</dim>
					<dim>32</dim>
					<dim>240</dim>
					<dim>432</dim>
				</port>
				<port id="1">
					<dim>16</dim>
					<dim>32</dim>
					<dim>1</dim>
					<dim>1</dim>
				</port>
			</input>
			<output>
				<port id="2" precision="FP16">
					<dim>1</dim>
					<dim>16</dim>
					<dim>240</dim>
					<dim>432</dim>
				</port>
			</output>
		</layer>
		<layer id="18" name="data_add_419204192543541/EltwiseUnsqueeze44245_const" type="Const" version="opset1">
			<data element_type="f16" offset="5568" shape="1,16,1,1" size="32"/>
			<output>
				<port id="1" precision="FP16">
					<dim>1</dim>
					<dim>16</dim>
					<dim>1</dim>
					<dim>1</dim>
				</port>
			</output>
		</layer>
		<layer id="19" name="380/variance/Fused_Add_" type="Add" version="opset1">
			<input>
				<port id="0">
					<dim>1</dim>
					<dim>16</dim>
					<dim>240</dim>
					<dim>432</dim>
				</port>
				<port id="1">
					<dim>1</dim>
					<dim>16</dim>
					<dim>1</dim>
					<dim>1</dim>
				</port>
			</input>
			<output>
				<port id="2" precision="FP16">
					<dim>1</dim>
					<dim>16</dim>
					<dim>240</dim>
					<dim>432</dim>
				</port>
			</output>
		</layer>
		<layer id="20" name="382/mean/Fused_Mul_4599545997_const" type="Const" version="opset1">
			<data element_type="f16" offset="5600" shape="96,16,1,1" size="3072"/>
			<output>
				<port id="1" precision="FP16">
					<dim>96</dim>
					<dim>16</dim>
					<dim>1</dim>
					<dim>1</dim>
				</port>
			</output>
		</layer>
		<layer id="21" name="381" type="Convolution" version="opset1">
			<data dilations="1,1" output_padding="0,0" pads_begin="0,0" pads_end="0,0" strides="1,1"/>
			<input>
				<port id="0">
					<dim>1</dim>
					<dim>16</dim>
					<dim>240</dim>
					<dim>432</dim>
				</port>
				<port id="1">
					<dim>96</dim>
					<dim>16</dim>
					<dim>1</dim>
					<dim>1</dim>
				</port>
			</input>
			<output>
				<port id="2" precision="FP16">
					<dim>1</dim>
					<dim>96</dim>
					<dim>240</dim>
					<dim>432</dim>
				</port>
			</output>
		</layer>
		<layer id="22" name="data_add_419284193343543/EltwiseUnsqueeze44253_const" type="Const" version="opset1">
			<data element_type="f16" offset="8672" shape="1,96,1,1" size="192"/>
			<output>
				<port id="1" precision="FP16">
					<dim>1</dim>
					<dim>96</dim>
					<dim>1</dim>
					<dim>1</dim>
				</port>
			</output>
		</layer>
		<layer id="23" name="382/variance/Fused_Add_" type="Add" version="opset1">
			<input>
				<port id="0">
					<dim>1</dim>
					<dim>96</dim>
					<dim>240</dim>
					<dim>432</dim>
				</port>
				<port id="1">
					<dim>1</dim>
					<dim>96</dim>
					<dim>1</dim>
					<dim>1</dim>
				</port>
			</input>
			<output>
				<port id="2" precision="FP16">
					<dim>1</dim>
					<dim>96</dim>
					<dim>240</dim>
					<dim>432</dim>
				</port>
			</output>
		</layer>
		<layer id="24" name="383" type="Clamp" version="opset1">
			<data max="6.0" min="0.0"/>
			<input>
				<port id="0">
					<dim>1</dim>
					<dim>96</dim>
					<dim>240</dim>
					<dim>432</dim>
				</port>
			</input>
			<output>
				<port id="1" precision="FP16">
					<dim>1</dim>
					<dim>96</dim>
					<dim>240</dim>
					<dim>432</dim>
				</port>
			</output>
		</layer>
		<layer id="25" name="9046690469_const" type="Const" version="opset1">
			<data element_type="f16" offset="8864" shape="96,1,1,3,3" size="1728"/>
			<output>
				<port id="1" precision="FP16">
					<dim>96</dim>
					<dim>1</dim>
					<dim>1</dim>
					<dim>3</dim>
					<dim>3</dim>
				</port>
			</output>
		</layer>
		<layer id="26" name="384" type="GroupConvolution" version="opset1">
			<data dilations="1,1" output_padding="0,0" pads_begin="1,1" pads_end="1,1" strides="2,2"/>
			<input>
				<port id="0">
					<dim>1</dim>
					<dim>96</dim>
					<dim>240</dim>
					<dim>432</dim>
				</port>
				<port id="1">
					<dim>96</dim>
					<dim>1</dim>
					<dim>1</dim>
					<dim>3</dim>
					<dim>3</dim>
				</port>
			</input>
			<output>
				<port id="2" precision="FP16">
					<dim>1</dim>
					<dim>96</dim>
					<dim>120</dim>
					<dim>216</dim>
				</port>
			</output>
		</layer>
		<layer id="27" name="data_add_419364194143545/EltwiseUnsqueeze44261_const" type="Const" version="opset1">
			<data element_type="f16" offset="10592" shape="1,96,1,1" size="192"/>
			<output>
				<port id="1" precision="FP16">
					<dim>1</dim>
					<dim>96</dim>
					<dim>1</dim>
					<dim>1</dim>
				</port>
			</output>
		</layer>
		<layer id="28" name="385/variance/Fused_Add_" type="Add" version="opset1">
			<input>
				<port id="0">
					<dim>1</dim>
					<dim>96</dim>
					<dim>120</dim>
					<dim>216</dim>
				</port>
				<port id="1">
					<dim>1</dim>
					<dim>96</dim>
					<dim>1</dim>
					<dim>1</dim>
				</port>
			</input>
			<output>
				<port id="2" precision="FP16">
					<dim>1</dim>
					<dim>96</dim>
					<dim>120</dim>
					<dim>216</dim>
				</port>
			</output>
		</layer>
		<layer id="29" name="386" type="Clamp" version="opset1">
			<data max="6.0" min="0.0"/>
			<input>
				<port id="0">
					<dim>1</dim>
					<dim>96</dim>
					<dim>120</dim>
					<dim>216</dim>
				</port>
			</input>
			<output>
				<port id="1" precision="FP16">
					<dim>1</dim>
					<dim>96</dim>
					<dim>120</dim>
					<dim>216</dim>
				</port>
			</output>
		</layer>
		<layer id="30" name="388/mean/Fused_Mul_4600346005_const" type="Const" version="opset1">
			<data element_type="f16" offset="10784" shape="24,96,1,1" size="4608"/>
			<output>
				<port id="1" precision="FP16">
					<dim>24</dim>
					<dim>96</dim>
					<dim>1</dim>
					<dim>1</dim>
				</port>
			</output>
		</layer>
		<layer id="31" name="387" type="Convolution" version="opset1">
			<data dilations="1,1" output_padding="0,0" pads_begin="0,0" pads_end="0,0" strides="1,1"/>
			<input>
				<port id="0">
					<dim>1</dim>
					<dim>96</dim>
					<dim>120</dim>
					<dim>216</dim>
				</port>
				<port id="1">
					<dim>24</dim>
					<dim>96</dim>
					<dim>1</dim>
					<dim>1</dim>
				</port>
			</input>
			<output>
				<port id="2" precision="FP16">
					<dim>1</dim>
					<dim>24</dim>
					<dim>120</dim>
					<dim>216</dim>
				</port>
			</output>
		</layer>
		<layer id="32" name="data_add_419444194943547/EltwiseUnsqueeze44269_const" type="Const" version="opset1">
			<data element_type="f16" offset="15392" shape="1,24,1,1" size="48"/>
			<output>
				<port id="1" precision="FP16">
					<dim>1</dim>
					<dim>24</dim>
					<dim>1</dim>
					<dim>1</dim>
				</port>
			</output>
		</layer>
		<layer id="33" name="388/variance/Fused_Add_" type="Add" version="opset1">
			<input>
				<port id="0">
					<dim>1</dim>
					<dim>24</dim>
					<dim>120</dim>
					<dim>216</dim>
				</port>
				<port id="1">
					<dim>1</dim>
					<dim>24</dim>
					<dim>1</dim>
					<dim>1</dim>
				</port>
			</input>
			<output>
				<port id="2" precision="FP16">
					<dim>1</dim>
					<dim>24</dim>
					<dim>120</dim>
					<dim>216</dim>
				</port>
			</output>
		</layer>
		<layer id="34" name="390/mean/Fused_Mul_4600746009_const" type="Const" version="opset1">
			<data element_type="f16" offset="15440" shape="144,24,1,1" size="6912"/>
			<output>
				<port id="1" precision="FP16">
					<dim>144</dim>
					<dim>24</dim>
					<dim>1</dim>
					<dim>1</dim>
				</port>
			</output>
		</layer>
		<layer id="35" name="389" type="Convolution" version="opset1">
			<data dilations="1,1" output_padding="0,0" pads_begin="0,0" pads_end="0,0" strides="1,1"/>
			<input>
				<port id="0">
					<dim>1</dim>
					<dim>24</dim>
					<dim>120</dim>
					<dim>216</dim>
				</port>
				<port id="1">
					<dim>144</dim>
					<dim>24</dim>
					<dim>1</dim>
					<dim>1</dim>
				</port>
			</input>
			<output>
				<port id="2" precision="FP16">
					<dim>1</dim>
					<dim>144</dim>
					<dim>120</dim>
					<dim>216</dim>
				</port>
			</output>
		</layer>
		<layer id="36" name="data_add_419524195743549/EltwiseUnsqueeze44277_const" type="Const" version="opset1">
			<data element_type="f16" offset="22352" shape="1,144,1,1" size="288"/>
			<output>
				<port id="1" precision="FP16">
					<dim>1</dim>
					<dim>144</dim>
					<dim>1</dim>
					<dim>1</dim>
				</port>
			</output>
		</layer>
		<layer id="37" name="390/variance/Fused_Add_" type="Add" version="opset1">
			<input>
				<port id="0">
					<dim>1</dim>
					<dim>144</dim>
					<dim>120</dim>
					<dim>216</dim>
				</port>
				<port id="1">
					<dim>1</dim>
					<dim>144</dim>
					<dim>1</dim>
					<dim>1</dim>
				</port>
			</input>
			<output>
				<port id="2" precision="FP16">
					<dim>1</dim>
					<dim>144</dim>
					<dim>120</dim>
					<dim>216</dim>
				</port>
			</output>
		</layer>
		<layer id="38" name="391" type="Clamp" version="opset1">
			<data max="6.0" min="0.0"/>
			<input>
				<port id="0">
					<dim>1</dim>
					<dim>144</dim>
					<dim>120</dim>
					<dim>216</dim>
				</port>
			</input>
			<output>
				<port id="1" precision="FP16">
					<dim>1</dim>
					<dim>144</dim>
					<dim>120</dim>
					<dim>216</dim>
				</port>
			</output>
		</layer>
		<layer id="39" name="9046290465_const" type="Const" version="opset1">
			<data element_type="f16" offset="22640" shape="144,1,1,3,3" size="2592"/>
			<output>
				<port id="1" precision="FP16">
					<dim>144</dim>
					<dim>1</dim>
					<dim>1</dim>
					<dim>3</dim>
					<dim>3</dim>
				</port>
			</output>
		</layer>
		<layer id="40" name="392" type="GroupConvolution" version="opset1">
			<data dilations="1,1" output_padding="0,0" pads_begin="1,1" pads_end="1,1" strides="1,1"/>
			<input>
				<port id="0">
					<dim>1</dim>
					<dim>144</dim>
					<dim>120</dim>
					<dim>216</dim>
				</port>
				<port id="1">
					<dim>144</dim>
					<dim>1</dim>
					<dim>1</dim>
					<dim>3</dim>
					<dim>3</dim>
				</port>
			</input>
			<output>
				<port id="2" precision="FP16">
					<dim>1</dim>
					<dim>144</dim>
					<dim>120</dim>
					<dim>216</dim>
				</port>
			</output>
		</layer>
		<layer id="41" name="data_add_419604196543551/EltwiseUnsqueeze44285_const" type="Const" version="opset1">
			<data element_type="f16" offset="25232" shape="1,144,1,1" size="288"/>
			<output>
				<port id="1" precision="FP16">
					<dim>1</dim>
					<dim>144</dim>
					<dim>1</dim>
					<dim>1</dim>
				</port>
			</output>
		</layer>
		<layer id="42" name="393/variance/Fused_Add_" type="Add" version="opset1">
			<input>
				<port id="0">
					<dim>1</dim>
					<dim>144</dim>
					<dim>120</dim>
					<dim>216</dim>
				</port>
				<port id="1">
					<dim>1</dim>
					<dim>144</dim>
					<dim>1</dim>
					<dim>1</dim>
				</port>
			</input>
			<output>
				<port id="2" precision="FP16">
					<dim>1</dim>
					<dim>144</dim>
					<dim>120</dim>
					<dim>216</dim>
				</port>
			</output>
		</layer>
		<layer id="43" name="394" type="Clamp" version="opset1">
			<data max="6.0" min="0.0"/>
			<input>
				<port id="0">
					<dim>1</dim>
					<dim>144</dim>
					<dim>120</dim>
					<dim>216</dim>
				</port>
			</input>
			<output>
				<port id="1" precision="FP16">
					<dim>1</dim>
					<dim>144</dim>
					<dim>120</dim>
					<dim>216</dim>
				</port>
			</output>
		</layer>
		<layer id="44" name="396/mean/Fused_Mul_4601546017_const" type="Const" version="opset1">
			<data element_type="f16" offset="25520" shape="24,144,1,1" size="6912"/>
			<output>
				<port id="1" precision="FP16">
					<dim>24</dim>
					<dim>144</dim>
					<dim>1</dim>
					<dim>1</dim>
				</port>
			</output>
		</layer>
		<layer id="45" name="395" type="Convolution" version="opset1">
			<data dilations="1,1" output_padding="0,0" pads_begin="0,0" pads_end="0,0" strides="1,1"/>
			<input>
				<port id="0">
					<dim>1</dim>
					<dim>144</dim>
					<dim>120</dim>
					<dim>216</dim>
				</port>
				<port id="1">
					<dim>24</dim>
					<dim>144</dim>
					<dim>1</dim>
					<dim>1</dim>
				</port>
			</input>
			<output>
				<port id="2" precision="FP16">
					<dim>1</dim>
					<dim>24</dim>
					<dim>120</dim>
					<dim>216</dim>
				</port>
			</output>
		</layer>
		<layer id="46" name="data_add_419684197343553/EltwiseUnsqueeze44293_const" type="Const" version="opset1">
			<data element_type="f16" offset="32432" shape="1,24,1,1" size="48"/>
			<output>
				<port id="1" precision="FP16">
					<dim>1</dim>
					<dim>24</dim>
					<dim>1</dim>
					<dim>1</dim>
				</port>
			</output>
		</layer>
		<layer id="47" name="396/variance/Fused_Add_" type="Add" version="opset1">
			<input>
				<port id="0">
					<dim>1</dim>
					<dim>24</dim>
					<dim>120</dim>
					<dim>216</dim>
				</port>
				<port id="1">
					<dim>1</dim>
					<dim>24</dim>
					<dim>1</dim>
					<dim>1</dim>
				</port>
			</input>
			<output>
				<port id="2" precision="FP16">
					<dim>1</dim>
					<dim>24</dim>
					<dim>120</dim>
					<dim>216</dim>
				</port>
			</output>
		</layer>
		<layer id="48" name="397" type="Add" version="opset1">
			<input>
				<port id="0">
					<dim>1</dim>
					<dim>24</dim>
					<dim>120</dim>
					<dim>216</dim>
				</port>
				<port id="1">
					<dim>1</dim>
					<dim>24</dim>
					<dim>120</dim>
					<dim>216</dim>
				</port>
			</input>
			<output>
				<port id="2" precision="FP16">
					<dim>1</dim>
					<dim>24</dim>
					<dim>120</dim>
					<dim>216</dim>
				</port>
			</output>
		</layer>
		<layer id="49" name="399/mean/Fused_Mul_4601946021_const" type="Const" version="opset1">
			<data element_type="f16" offset="32480" shape="144,24,1,1" size="6912"/>
			<output>
				<port id="1" precision="FP16">
					<dim>144</dim>
					<dim>24</dim>
					<dim>1</dim>
					<dim>1</dim>
				</port>
			</output>
		</layer>
		<layer id="50" name="398" type="Convolution" version="opset1">
			<data dilations="1,1" output_padding="0,0" pads_begin="0,0" pads_end="0,0" strides="1,1"/>
			<input>
				<port id="0">
					<dim>1</dim>
					<dim>24</dim>
					<dim>120</dim>
					<dim>216</dim>
				</port>
				<port id="1">
					<dim>144</dim>
					<dim>24</dim>
					<dim>1</dim>
					<dim>1</dim>
				</port>
			</input>
			<output>
				<port id="2" precision="FP16">
					<dim>1</dim>
					<dim>144</dim>
					<dim>120</dim>
					<dim>216</dim>
				</port>
			</output>
		</layer>
		<layer id="51" name="data_add_419764198143555/EltwiseUnsqueeze44301_const" type="Const" version="opset1">
			<data element_type="f16" offset="39392" shape="1,144,1,1" size="288"/>
			<output>
				<port id="1" precision="FP16">
					<dim>1</dim>
					<dim>144</dim>
					<dim>1</dim>
					<dim>1</dim>
				</port>
			</output>
		</layer>
		<layer id="52" name="399/variance/Fused_Add_" type="Add" version="opset1">
			<input>
				<port id="0">
					<dim>1</dim>
					<dim>144</dim>
					<dim>120</dim>
					<dim>216</dim>
				</port>
				<port id="1">
					<dim>1</dim>
					<dim>144</dim>
					<dim>1</dim>
					<dim>1</dim>
				</port>
			</input>
			<output>
				<port id="2" precision="FP16">
					<dim>1</dim>
					<dim>144</dim>
					<dim>120</dim>
					<dim>216</dim>
				</port>
			</output>
		</layer>
		<layer id="53" name="400" type="Clamp" version="opset1">
			<data max="6.0" min="0.0"/>
			<input>
				<port id="0">
					<dim>1</dim>
					<dim>144</dim>
					<dim>120</dim>
					<dim>216</dim>
				</port>
			</input>
			<output>
				<port id="1" precision="FP16">
					<dim>1</dim>
					<dim>144</dim>
					<dim>120</dim>
					<dim>216</dim>
				</port>
			</output>
		</layer>
		<layer id="54" name="9045090453_const" type="Const" version="opset1">
			<data element_type="f16" offset="39680" shape="144,1,1,3,3" size="2592"/>
			<output>
				<port id="1" precision="FP16">
					<dim>144</dim>
					<dim>1</dim>
					<dim>1</dim>
					<dim>3</dim>
					<dim>3</dim>
				</port>
			</output>
		</layer>
		<layer id="55" name="401" type="GroupConvolution" version="opset1">
			<data dilations="1,1" output_padding="0,0" pads_begin="1,1" pads_end="1,1" strides="2,2"/>
			<input>
				<port id="0">
					<dim>1</dim>
					<dim>144</dim>
					<dim>120</dim>
					<dim>216</dim>
				</port>
				<port id="1">
					<dim>144</dim>
					<dim>1</dim>
					<dim>1</dim>
					<dim>3</dim>
					<dim>3</dim>
				</port>
			</input>
			<output>
				<port id="2" precision="FP16">
					<dim>1</dim>
					<dim>144</dim>
					<dim>60</dim>
					<dim>108</dim>
				</port>
			</output>
		</layer>
		<layer id="56" name="data_add_419844198943557/EltwiseUnsqueeze44309_const" type="Const" version="opset1">
			<data element_type="f16" offset="42272" shape="1,144,1,1" size="288"/>
			<output>
				<port id="1" precision="FP16">
					<dim>1</dim>
					<dim>144</dim>
					<dim>1</dim>
					<dim>1</dim>
				</port>
			</output>
		</layer>
		<layer id="57" name="402/variance/Fused_Add_" type="Add" version="opset1">
			<input>
				<port id="0">
					<dim>1</dim>
					<dim>144</dim>
					<dim>60</dim>
					<dim>108</dim>
				</port>
				<port id="1">
					<dim>1</dim>
					<dim>144</dim>
					<dim>1</dim>
					<dim>1</dim>
				</port>
			</input>
			<output>
				<port id="2" precision="FP16">
					<dim>1</dim>
					<dim>144</dim>
					<dim>60</dim>
					<dim>108</dim>
				</port>
			</output>
		</layer>
		<layer id="58" name="403" type="Clamp" version="opset1">
			<data max="6.0" min="0.0"/>
			<input>
				<port id="0">
					<dim>1</dim>
					<dim>144</dim>
					<dim>60</dim>
					<dim>108</dim>
				</port>
			</input>
			<output>
				<port id="1" precision="FP16">
					<dim>1</dim>
					<dim>144</dim>
					<dim>60</dim>
					<dim>108</dim>
				</port>
			</output>
		</layer>
		<layer id="59" name="405/mean/Fused_Mul_4602746029_const" type="Const" version="opset1">
			<data element_type="f16" offset="42560" shape="32,144,1,1" size="9216"/>
			<output>
				<port id="1" precision="FP16">
					<dim>32</dim>
					<dim>144</dim>
					<dim>1</dim>
					<dim>1</dim>
				</port>
			</output>
		</layer>
		<layer id="60" name="404" type="Convolution" version="opset1">
			<data dilations="1,1" output_padding="0,0" pads_begin="0,0" pads_end="0,0" strides="1,1"/>
			<input>
				<port id="0">
					<dim>1</dim>
					<dim>144</dim>
					<dim>60</dim>
					<dim>108</dim>
				</port>
				<port id="1">
					<dim>32</dim>
					<dim>144</dim>
					<dim>1</dim>
					<dim>1</dim>
				</port>
			</input>
			<output>
				<port id="2" precision="FP16">
					<dim>1</dim>
					<dim>32</dim>
					<dim>60</dim>
					<dim>108</dim>
				</port>
			</output>
		</layer>
		<layer id="61" name="data_add_419924199743559/EltwiseUnsqueeze44317_const" type="Const" version="opset1">
			<data element_type="f16" offset="51776" shape="1,32,1,1" size="64"/>
			<output>
				<port id="1" precision="FP16">
					<dim>1</dim>
					<dim>32</dim>
					<dim>1</dim>
					<dim>1</dim>
				</port>
			</output>
		</layer>
		<layer id="62" name="405/variance/Fused_Add_" type="Add" version="opset1">
			<input>
				<port id="0">
					<dim>1</dim>
					<dim>32</dim>
					<dim>60</dim>
					<dim>108</dim>
				</port>
				<port id="1">
					<dim>1</dim>
					<dim>32</dim>
					<dim>1</dim>
					<dim>1</dim>
				</port>
			</input>
			<output>
				<port id="2" precision="FP16">
					<dim>1</dim>
					<dim>32</dim>
					<dim>60</dim>
					<dim>108</dim>
				</port>
			</output>
		</layer>
		<layer id="63" name="407/mean/Fused_Mul_4603146033_const" type="Const" version="opset1">
			<data element_type="f16" offset="51840" shape="192,32,1,1" size="12288"/>
			<output>
				<port id="1" precision="FP16">
					<dim>192</dim>
					<dim>32</dim>
					<dim>1</dim>
					<dim>1</dim>
				</port>
			</output>
		</layer>
		<layer id="64" name="406" type="Convolution" version="opset1">
			<data dilations="1,1" output_padding="0,0" pads_begin="0,0" pads_end="0,0" strides="1,1"/>
			<input>
				<port id="0">
					<dim>1</dim>
					<dim>32</dim>
					<dim>60</dim>
					<dim>108</dim>
				</port>
				<port id="1">
					<dim>192</dim>
					<dim>32</dim>
					<dim>1</dim>
					<dim>1</dim>
				</port>
			</input>
			<output>
				<port id="2" precision="FP16">
					<dim>1</dim>
					<dim>192</dim>
					<dim>60</dim>
					<dim>108</dim>
				</port>
			</output>
		</layer>
		<layer id="65" name="data_add_420004200543561/EltwiseUnsqueeze44325_const" type="Const" version="opset1">
			<data element_type="f16" offset="64128" shape="1,192,1,1" size="384"/>
			<output>
				<port id="1" precision="FP16">
					<dim>1</dim>
					<dim>192</dim>
					<dim>1</dim>
					<dim>1</dim>
				</port>
			</output>
		</layer>
		<layer id="66" name="407/variance/Fused_Add_" type="Add" version="opset1">
			<input>
				<port id="0">
					<dim>1</dim>
					<dim>192</dim>
					<dim>60</dim>
					<dim>108</dim>
				</port>
				<port id="1">
					<dim>1</dim>
					<dim>192</dim>
					<dim>1</dim>
					<dim>1</dim>
				</port>
			</input>
			<output>
				<port id="2" precision="FP16">
					<dim>1</dim>
					<dim>192</dim>
					<dim>60</dim>
					<dim>108</dim>
				</port>
			</output>
		</layer>
		<layer id="67" name="408" type="Clamp" version="opset1">
			<data max="6.0" min="0.0"/>
			<input>
				<port id="0">
					<dim>1</dim>
					<dim>192</dim>
					<dim>60</dim>
					<dim>108</dim>
				</port>
			</input>
			<output>
				<port id="1" precision="FP16">
					<dim>1</dim>
					<dim>192</dim>
					<dim>60</dim>
					<dim>108</dim>
				</port>
			</output>
		</layer>
		<layer id="68" name="9045490457_const" type="Const" version="opset1">
			<data element_type="f16" offset="64512" shape="192,1,1,3,3" size="3456"/>
			<output>
				<port id="1" precision="FP16">
					<dim>192</dim>
					<dim>1</dim>
					<dim>1</dim>
					<dim>3</dim>
					<dim>3</dim>
				</port>
			</output>
		</layer>
		<layer id="69" name="409" type="GroupConvolution" version="opset1">
			<data dilations="1,1" output_padding="0,0" pads_begin="1,1" pads_end="1,1" strides="1,1"/>
			<input>
				<port id="0">
					<dim>1</dim>
					<dim>192</dim>
					<dim>60</dim>
					<dim>108</dim>
				</port>
				<port id="1">
					<dim>192</dim>
					<dim>1</dim>
					<dim>1</dim>
					<dim>3</dim>
					<dim>3</dim>
				</port>
			</input>
			<output>
				<port id="2" precision="FP16">
					<dim>1</dim>
					<dim>192</dim>
					<dim>60</dim>
					<dim>108</dim>
				</port>
			</output>
		</layer>
		<layer id="70" name="data_add_420084201343563/EltwiseUnsqueeze44333_const" type="Const" version="opset1">
			<data element_type="f16" offset="67968" shape="1,192,1,1" size="384"/>
			<output>
				<port id="1" precision="FP16">
					<dim>1</dim>
					<dim>192</dim>
					<dim>1</dim>
					<dim>1</dim>
				</port>
			</output>
		</layer>
		<layer id="71" name="410/variance/Fused_Add_" type="Add" version="opset1">
			<input>
				<port id="0">
					<dim>1</dim>
					<dim>192</dim>
					<dim>60</dim>
					<dim>108</dim>
				</port>
				<port id="1">
					<dim>1</dim>
					<dim>192</dim>
					<dim>1</dim>
					<dim>1</dim>
				</port>
			</input>
			<output>
				<port id="2" precision="FP16">
					<dim>1</dim>
					<dim>192</dim>
					<dim>60</dim>
					<dim>108</dim>
				</port>
			</output>
		</layer>
		<layer id="72" name="411" type="Clamp" version="opset1">
			<data max="6.0" min="0.0"/>
			<input>
				<port id="0">
					<dim>1</dim>
					<dim>192</dim>
					<dim>60</dim>
					<dim>108</dim>
				</port>
			</input>
			<output>
				<port id="1" precision="FP16">
					<dim>1</dim>
					<dim>192</dim>
					<dim>60</dim>
					<dim>108</dim>
				</port>
			</output>
		</layer>
		<layer id="73" name="413/mean/Fused_Mul_4603946041_const" type="Const" version="opset1">
			<data element_type="f16" offset="68352" shape="32,192,1,1" size="12288"/>
			<output>
				<port id="1" precision="FP16">
					<dim>32</dim>
					<dim>192</dim>
					<dim>1</dim>
					<dim>1</dim>
				</port>
			</output>
		</layer>
		<layer id="74" name="412" type="Convolution" version="opset1">
			<data dilations="1,1" output_padding="0,0" pads_begin="0,0" pads_end="0,0" strides="1,1"/>
			<input>
				<port id="0">
					<dim>1</dim>
					<dim>192</dim>
					<dim>60</dim>
					<dim>108</dim>
				</port>
				<port id="1">
					<dim>32</dim>
					<dim>192</dim>
					<dim>1</dim>
					<dim>1</dim>
				</port>
			</input>
			<output>
				<port id="2" precision="FP16">
					<dim>1</dim>
					<dim>32</dim>
					<dim>60</dim>
					<dim>108</dim>
				</port>
			</output>
		</layer>
		<layer id="75" name="data_add_420164202143565/EltwiseUnsqueeze44341_const" type="Const" version="opset1">
			<data element_type="f16" offset="80640" shape="1,32,1,1" size="64"/>
			<output>
				<port id="1" precision="FP16">
					<dim>1</dim>
					<dim>32</dim>
					<dim>1</dim>
					<dim>1</dim>
				</port>
			</output>
		</layer>
		<layer id="76" name="413/variance/Fused_Add_" type="Add" version="opset1">
			<input>
				<port id="0">
					<dim>1</dim>
					<dim>32</dim>
					<dim>60</dim>
					<dim>108</dim>
				</port>
				<port id="1">
					<dim>1</dim>
					<dim>32</dim>
					<dim>1</dim>
					<dim>1</dim>
				</port>
			</input>
			<output>
				<port id="2" precision="FP16">
					<dim>1</dim>
					<dim>32</dim>
					<dim>60</dim>
					<dim>108</dim>
				</port>
			</output>
		</layer>
		<layer id="77" name="414" type="Add" version="opset1">
			<input>
				<port id="0">
					<dim>1</dim>
					<dim>32</dim>
					<dim>60</dim>
					<dim>108</dim>
				</port>
				<port id="1">
					<dim>1</dim>
					<dim>32</dim>
					<dim>60</dim>
					<dim>108</dim>
				</port>
			</input>
			<output>
				<port id="2" precision="FP16">
					<dim>1</dim>
					<dim>32</dim>
					<dim>60</dim>
					<dim>108</dim>
				</port>
			</output>
		</layer>
		<layer id="78" name="416/mean/Fused_Mul_4604346045_const" type="Const" version="opset1">
			<data element_type="f16" offset="80704" shape="192,32,1,1" size="12288"/>
			<output>
				<port id="1" precision="FP16">
					<dim>192</dim>
					<dim>32</dim>
					<dim>1</dim>
					<dim>1</dim>
				</port>
			</output>
		</layer>
		<layer id="79" name="415" type="Convolution" version="opset1">
			<data dilations="1,1" output_padding="0,0" pads_begin="0,0" pads_end="0,0" strides="1,1"/>
			<input>
				<port id="0">
					<dim>1</dim>
					<dim>32</dim>
					<dim>60</dim>
					<dim>108</dim>
				</port>
				<port id="1">
					<dim>192</dim>
					<dim>32</dim>
					<dim>1</dim>
					<dim>1</dim>
				</port>
			</input>
			<output>
				<port id="2" precision="FP16">
					<dim>1</dim>
					<dim>192</dim>
					<dim>60</dim>
					<dim>108</dim>
				</port>
			</output>
		</layer>
		<layer id="80" name="data_add_420244202943567/EltwiseUnsqueeze44349_const" type="Const" version="opset1">
			<data element_type="f16" offset="92992" shape="1,192,1,1" size="384"/>
			<output>
				<port id="1" precision="FP16">
					<dim>1</dim>
					<dim>192</dim>
					<dim>1</dim>
					<dim>1</dim>
				</port>
			</output>
		</layer>
		<layer id="81" name="416/variance/Fused_Add_" type="Add" version="opset1">
			<input>
				<port id="0">
					<dim>1</dim>
					<dim>192</dim>
					<dim>60</dim>
					<dim>108</dim>
				</port>
				<port id="1">
					<dim>1</dim>
					<dim>192</dim>
					<dim>1</dim>
					<dim>1</dim>
				</port>
			</input>
			<output>
				<port id="2" precision="FP16">
					<dim>1</dim>
					<dim>192</dim>
					<dim>60</dim>
					<dim>108</dim>
				</port>
			</output>
		</layer>
		<layer id="82" name="417" type="Clamp" version="opset1">
			<data max="6.0" min="0.0"/>
			<input>
				<port id="0">
					<dim>1</dim>
					<dim>192</dim>
					<dim>60</dim>
					<dim>108</dim>
				</port>
			</input>
			<output>
				<port id="1" precision="FP16">
					<dim>1</dim>
					<dim>192</dim>
					<dim>60</dim>
					<dim>108</dim>
				</port>
			</output>
		</layer>
		<layer id="83" name="9044690449_const" type="Const" version="opset1">
			<data element_type="f16" offset="93376" shape="192,1,1,3,3" size="3456"/>
			<output>
				<port id="1" precision="FP16">
					<dim>192</dim>
					<dim>1</dim>
					<dim>1</dim>
					<dim>3</dim>
					<dim>3</dim>
				</port>
			</output>
		</layer>
		<layer id="84" name="418" type="GroupConvolution" version="opset1">
			<data dilations="1,1" output_padding="0,0" pads_begin="1,1" pads_end="1,1" strides="1,1"/>
			<input>
				<port id="0">
					<dim>1</dim>
					<dim>192</dim>
					<dim>60</dim>
					<dim>108</dim>
				</port>
				<port id="1">
					<dim>192</dim>
					<dim>1</dim>
					<dim>1</dim>
					<dim>3</dim>
					<dim>3</dim>
				</port>
			</input>
			<output>
				<port id="2" precision="FP16">
					<dim>1</dim>
					<dim>192</dim>
					<dim>60</dim>
					<dim>108</dim>
				</port>
			</output>
		</layer>
		<layer id="85" name="data_add_420324203743569/EltwiseUnsqueeze44357_const" type="Const" version="opset1">
			<data element_type="f16" offset="96832" shape="1,192,1,1" size="384"/>
			<output>
				<port id="1" precision="FP16">
					<dim>1</dim>
					<dim>192</dim>
					<dim>1</dim>
					<dim>1</dim>
				</port>
			</output>
		</layer>
		<layer id="86" name="419/variance/Fused_Add_" type="Add" version="opset1">
			<input>
				<port id="0">
					<dim>1</dim>
					<dim>192</dim>
					<dim>60</dim>
					<dim>108</dim>
				</port>
				<port id="1">
					<dim>1</dim>
					<dim>192</dim>
					<dim>1</dim>
					<dim>1</dim>
				</port>
			</input>
			<output>
				<port id="2" precision="FP16">
					<dim>1</dim>
					<dim>192</dim>
					<dim>60</dim>
					<dim>108</dim>
				</port>
			</output>
		</layer>
		<layer id="87" name="420" type="Clamp" version="opset1">
			<data max="6.0" min="0.0"/>
			<input>
				<port id="0">
					<dim>1</dim>
					<dim>192</dim>
					<dim>60</dim>
					<dim>108</dim>
				</port>
			</input>
			<output>
				<port id="1" precision="FP16">
					<dim>1</dim>
					<dim>192</dim>
					<dim>60</dim>
					<dim>108</dim>
				</port>
			</output>
		</layer>
		<layer id="88" name="422/mean/Fused_Mul_4605146053_const" type="Const" version="opset1">
			<data element_type="f16" offset="97216" shape="32,192,1,1" size="12288"/>
			<output>
				<port id="1" precision="FP16">
					<dim>32</dim>
					<dim>192</dim>
					<dim>1</dim>
					<dim>1</dim>
				</port>
			</output>
		</layer>
		<layer id="89" name="421" type="Convolution" version="opset1">
			<data dilations="1,1" output_padding="0,0" pads_begin="0,0" pads_end="0,0" strides="1,1"/>
			<input>
				<port id="0">
					<dim>1</dim>
					<dim>192</dim>
					<dim>60</dim>
					<dim>108</dim>
				</port>
				<port id="1">
					<dim>32</dim>
					<dim>192</dim>
					<dim>1</dim>
					<dim>1</dim>
				</port>
			</input>
			<output>
				<port id="2" precision="FP16">
					<dim>1</dim>
					<dim>32</dim>
					<dim>60</dim>
					<dim>108</dim>
				</port>
			</output>
		</layer>
		<layer id="90" name="data_add_420404204543571/EltwiseUnsqueeze44365_const" type="Const" version="opset1">
			<data element_type="f16" offset="109504" shape="1,32,1,1" size="64"/>
			<output>
				<port id="1" precision="FP16">
					<dim>1</dim>
					<dim>32</dim>
					<dim>1</dim>
					<dim>1</dim>
				</port>
			</output>
		</layer>
		<layer id="91" name="422/variance/Fused_Add_" type="Add" version="opset1">
			<input>
				<port id="0">
					<dim>1</dim>
					<dim>32</dim>
					<dim>60</dim>
					<dim>108</dim>
				</port>
				<port id="1">
					<dim>1</dim>
					<dim>32</dim>
					<dim>1</dim>
					<dim>1</dim>
				</port>
			</input>
			<output>
				<port id="2" precision="FP16">
					<dim>1</dim>
					<dim>32</dim>
					<dim>60</dim>
					<dim>108</dim>
				</port>
			</output>
		</layer>
		<layer id="92" name="423" type="Add" version="opset1">
			<input>
				<port id="0">
					<dim>1</dim>
					<dim>32</dim>
					<dim>60</dim>
					<dim>108</dim>
				</port>
				<port id="1">
					<dim>1</dim>
					<dim>32</dim>
					<dim>60</dim>
					<dim>108</dim>
				</port>
			</input>
			<output>
				<port id="2" precision="FP16">
					<dim>1</dim>
					<dim>32</dim>
					<dim>60</dim>
					<dim>108</dim>
				</port>
			</output>
		</layer>
		<layer id="93" name="neck.lateral_convs.0.conv.weight/Output_0/Data__const" type="Const" version="opset1">
			<data element_type="f16" offset="109568" shape="32,32,1,1" size="2048"/>
			<output>
				<port id="1" precision="FP16">
					<dim>32</dim>
					<dim>32</dim>
					<dim>1</dim>
					<dim>1</dim>
				</port>
			</output>
		</layer>
		<layer id="94" name="519/WithoutBiases" type="Convolution" version="opset1">
			<data dilations="1,1" output_padding="0,0" pads_begin="0,0" pads_end="0,0" strides="1,1"/>
			<input>
				<port id="0">
					<dim>1</dim>
					<dim>32</dim>
					<dim>60</dim>
					<dim>108</dim>
				</port>
				<port id="1">
					<dim>32</dim>
					<dim>32</dim>
					<dim>1</dim>
					<dim>1</dim>
				</port>
			</input>
			<output>
				<port id="2" precision="FP16">
					<dim>1</dim>
					<dim>32</dim>
					<dim>60</dim>
					<dim>108</dim>
				</port>
			</output>
		</layer>
		<layer id="95" name="519/Dims2584243441/EltwiseUnsqueeze44141_const" type="Const" version="opset1">
			<data element_type="f16" offset="111616" shape="1,32,1,1" size="64"/>
			<output>
				<port id="1" precision="FP16">
					<dim>1</dim>
					<dim>32</dim>
					<dim>1</dim>
					<dim>1</dim>
				</port>
			</output>
		</layer>
		<layer id="96" name="519" type="Add" version="opset1">
			<input>
				<port id="0">
					<dim>1</dim>
					<dim>32</dim>
					<dim>60</dim>
					<dim>108</dim>
				</port>
				<port id="1">
					<dim>1</dim>
					<dim>32</dim>
					<dim>1</dim>
					<dim>1</dim>
				</port>
			</input>
			<output>
				<port id="2" precision="FP16">
					<dim>1</dim>
					<dim>32</dim>
					<dim>60</dim>
					<dim>108</dim>
				</port>
			</output>
		</layer>
		<layer id="97" name="425/mean/Fused_Mul_4605546057_const" type="Const" version="opset1">
			<data element_type="f16" offset="111680" shape="192,32,1,1" size="12288"/>
			<output>
				<port id="1" precision="FP16">
					<dim>192</dim>
					<dim>32</dim>
					<dim>1</dim>
					<dim>1</dim>
				</port>
			</output>
		</layer>
		<layer id="98" name="424" type="Convolution" version="opset1">
			<data dilations="1,1" output_padding="0,0" pads_begin="0,0" pads_end="0,0" strides="1,1"/>
			<input>
				<port id="0">
					<dim>1</dim>
					<dim>32</dim>
					<dim>60</dim>
					<dim>108</dim>
				</port>
				<port id="1">
					<dim>192</dim>
					<dim>32</dim>
					<dim>1</dim>
					<dim>1</dim>
				</port>
			</input>
			<output>
				<port id="2" precision="FP16">
					<dim>1</dim>
					<dim>192</dim>
					<dim>60</dim>
					<dim>108</dim>
				</port>
			</output>
		</layer>
		<layer id="99" name="data_add_420484205343573/EltwiseUnsqueeze44373_const" type="Const" version="opset1">
			<data element_type="f16" offset="123968" shape="1,192,1,1" size="384"/>
			<output>
				<port id="1" precision="FP16">
					<dim>1</dim>
					<dim>192</dim>
					<dim>1</dim>
					<dim>1</dim>
				</port>
			</output>
		</layer>
		<layer id="100" name="425/variance/Fused_Add_" type="Add" version="opset1">
			<input>
				<port id="0">
					<dim>1</dim>
					<dim>192</dim>
					<dim>60</dim>
					<dim>108</dim>
				</port>
				<port id="1">
					<dim>1</dim>
					<dim>192</dim>
					<dim>1</dim>
					<dim>1</dim>
				</port>
			</input>
			<output>
				<port id="2" precision="FP16">
					<dim>1</dim>
					<dim>192</dim>
					<dim>60</dim>
					<dim>108</dim>
				</port>
			</output>
		</layer>
		<layer id="101" name="426" type="Clamp" version="opset1">
			<data max="6.0" min="0.0"/>
			<input>
				<port id="0">
					<dim>1</dim>
					<dim>192</dim>
					<dim>60</dim>
					<dim>108</dim>
				</port>
			</input>
			<output>
				<port id="1" precision="FP16">
					<dim>1</dim>
					<dim>192</dim>
					<dim>60</dim>
					<dim>108</dim>
				</port>
			</output>
		</layer>
		<layer id="102" name="9049090493_const" type="Const" version="opset1">
			<data element_type="f16" offset="124352" shape="192,1,1,3,3" size="3456"/>
			<output>
				<port id="1" precision="FP16">
					<dim>192</dim>
					<dim>1</dim>
					<dim>1</dim>
					<dim>3</dim>
					<dim>3</dim>
				</port>
			</output>
		</layer>
		<layer id="103" name="427" type="GroupConvolution" version="opset1">
			<data dilations="1,1" output_padding="0,0" pads_begin="1,1" pads_end="1,1" strides="2,2"/>
			<input>
				<port id="0">
					<dim>1</dim>
					<dim>192</dim>
					<dim>60</dim>
					<dim>108</dim>
				</port>
				<port id="1">
					<dim>192</dim>
					<dim>1</dim>
					<dim>1</dim>
					<dim>3</dim>
					<dim>3</dim>
				</port>
			</input>
			<output>
				<port id="2" precision="FP16">
					<dim>1</dim>
					<dim>192</dim>
					<dim>30</dim>
					<dim>54</dim>
				</port>
			</output>
		</layer>
		<layer id="104" name="data_add_420564206143575/EltwiseUnsqueeze44381_const" type="Const" version="opset1">
			<data element_type="f16" offset="127808" shape="1,192,1,1" size="384"/>
			<output>
				<port id="1" precision="FP16">
					<dim>1</dim>
					<dim>192</dim>
					<dim>1</dim>
					<dim>1</dim>
				</port>
			</output>
		</layer>
		<layer id="105" name="428/variance/Fused_Add_" type="Add" version="opset1">
			<input>
				<port id="0">
					<dim>1</dim>
					<dim>192</dim>
					<dim>30</dim>
					<dim>54</dim>
				</port>
				<port id="1">
					<dim>1</dim>
					<dim>192</dim>
					<dim>1</dim>
					<dim>1</dim>
				</port>
			</input>
			<output>
				<port id="2" precision="FP16">
					<dim>1</dim>
					<dim>192</dim>
					<dim>30</dim>
					<dim>54</dim>
				</port>
			</output>
		</layer>
		<layer id="106" name="429" type="Clamp" version="opset1">
			<data max="6.0" min="0.0"/>
			<input>
				<port id="0">
					<dim>1</dim>
					<dim>192</dim>
					<dim>30</dim>
					<dim>54</dim>
				</port>
			</input>
			<output>
				<port id="1" precision="FP16">
					<dim>1</dim>
					<dim>192</dim>
					<dim>30</dim>
					<dim>54</dim>
				</port>
			</output>
		</layer>
		<layer id="107" name="431/mean/Fused_Mul_4606346065_const" type="Const" version="opset1">
			<data element_type="f16" offset="128192" shape="64,192,1,1" size="24576"/>
			<output>
				<port id="1" precision="FP16">
					<dim>64</dim>
					<dim>192</dim>
					<dim>1</dim>
					<dim>1</dim>
				</port>
			</output>
		</layer>
		<layer id="108" name="430" type="Convolution" version="opset1">
			<data dilations="1,1" output_padding="0,0" pads_begin="0,0" pads_end="0,0" strides="1,1"/>
			<input>
				<port id="0">
					<dim>1</dim>
					<dim>192</dim>
					<dim>30</dim>
					<dim>54</dim>
				</port>
				<port id="1">
					<dim>64</dim>
					<dim>192</dim>
					<dim>1</dim>
					<dim>1</dim>
				</port>
			</input>
			<output>
				<port id="2" precision="FP16">
					<dim>1</dim>
					<dim>64</dim>
					<dim>30</dim>
					<dim>54</dim>
				</port>
			</output>
		</layer>
		<layer id="109" name="data_add_420644206943577/EltwiseUnsqueeze44389_const" type="Const" version="opset1">
			<data element_type="f16" offset="152768" shape="1,64,1,1" size="128"/>
			<output>
				<port id="1" precision="FP16">
					<dim>1</dim>
					<dim>64</dim>
					<dim>1</dim>
					<dim>1</dim>
				</port>
			</output>
		</layer>
		<layer id="110" name="431/variance/Fused_Add_" type="Add" version="opset1">
			<input>
				<port id="0">
					<dim>1</dim>
					<dim>64</dim>
					<dim>30</dim>
					<dim>54</dim>
				</port>
				<port id="1">
					<dim>1</dim>
					<dim>64</dim>
					<dim>1</dim>
					<dim>1</dim>
				</port>
			</input>
			<output>
				<port id="2" precision="FP16">
					<dim>1</dim>
					<dim>64</dim>
					<dim>30</dim>
					<dim>54</dim>
				</port>
			</output>
		</layer>
		<layer id="111" name="433/mean/Fused_Mul_4606746069_const" type="Const" version="opset1">
			<data element_type="f16" offset="152896" shape="384,64,1,1" size="49152"/>
			<output>
				<port id="1" precision="FP16">
					<dim>384</dim>
					<dim>64</dim>
					<dim>1</dim>
					<dim>1</dim>
				</port>
			</output>
		</layer>
		<layer id="112" name="432" type="Convolution" version="opset1">
			<data dilations="1,1" output_padding="0,0" pads_begin="0,0" pads_end="0,0" strides="1,1"/>
			<input>
				<port id="0">
					<dim>1</dim>
					<dim>64</dim>
					<dim>30</dim>
					<dim>54</dim>
				</port>
				<port id="1">
					<dim>384</dim>
					<dim>64</dim>
					<dim>1</dim>
					<dim>1</dim>
				</port>
			</input>
			<output>
				<port id="2" precision="FP16">
					<dim>1</dim>
					<dim>384</dim>
					<dim>30</dim>
					<dim>54</dim>
				</port>
			</output>
		</layer>
		<layer id="113" name="data_add_420724207743579/EltwiseUnsqueeze44397_const" type="Const" version="opset1">
			<data element_type="f16" offset="202048" shape="1,384,1,1" size="768"/>
			<output>
				<port id="1" precision="FP16">
					<dim>1</dim>
					<dim>384</dim>
					<dim>1</dim>
					<dim>1</dim>
				</port>
			</output>
		</layer>
		<layer id="114" name="433/variance/Fused_Add_" type="Add" version="opset1">
			<input>
				<port id="0">
					<dim>1</dim>
					<dim>384</dim>
					<dim>30</dim>
					<dim>54</dim>
				</port>
				<port id="1">
					<dim>1</dim>
					<dim>384</dim>
					<dim>1</dim>
					<dim>1</dim>
				</port>
			</input>
			<output>
				<port id="2" precision="FP16">
					<dim>1</dim>
					<dim>384</dim>
					<dim>30</dim>
					<dim>54</dim>
				</port>
			</output>
		</layer>
		<layer id="115" name="434" type="Clamp" version="opset1">
			<data max="6.0" min="0.0"/>
			<input>
				<port id="0">
					<dim>1</dim>
					<dim>384</dim>
					<dim>30</dim>
					<dim>54</dim>
				</port>
			</input>
			<output>
				<port id="1" precision="FP16">
					<dim>1</dim>
					<dim>384</dim>
					<dim>30</dim>
					<dim>54</dim>
				</port>
			</output>
		</layer>
		<layer id="116" name="9050290505_const" type="Const" version="opset1">
			<data element_type="f16" offset="202816" shape="384,1,1,3,3" size="6912"/>
			<output>
				<port id="1" precision="FP16">
					<dim>384</dim>
					<dim>1</dim>
					<dim>1</dim>
					<dim>3</dim>
					<dim>3</dim>
				</port>
			</output>
		</layer>
		<layer id="117" name="435" type="GroupConvolution" version="opset1">
			<data dilations="1,1" output_padding="0,0" pads_begin="1,1" pads_end="1,1" strides="1,1"/>
			<input>
				<port id="0">
					<dim>1</dim>
					<dim>384</dim>
					<dim>30</dim>
					<dim>54</dim>
				</port>
				<port id="1">
					<dim>384</dim>
					<dim>1</dim>
					<dim>1</dim>
					<dim>3</dim>
					<dim>3</dim>
				</port>
			</input>
			<output>
				<port id="2" precision="FP16">
					<dim>1</dim>
					<dim>384</dim>
					<dim>30</dim>
					<dim>54</dim>
				</port>
			</output>
		</layer>
		<layer id="118" name="data_add_420804208543581/EltwiseUnsqueeze44405_const" type="Const" version="opset1">
			<data element_type="f16" offset="209728" shape="1,384,1,1" size="768"/>
			<output>
				<port id="1" precision="FP16">
					<dim>1</dim>
					<dim>384</dim>
					<dim>1</dim>
					<dim>1</dim>
				</port>
			</output>
		</layer>
		<layer id="119" name="436/variance/Fused_Add_" type="Add" version="opset1">
			<input>
				<port id="0">
					<dim>1</dim>
					<dim>384</dim>
					<dim>30</dim>
					<dim>54</dim>
				</port>
				<port id="1">
					<dim>1</dim>
					<dim>384</dim>
					<dim>1</dim>
					<dim>1</dim>
				</port>
			</input>
			<output>
				<port id="2" precision="FP16">
					<dim>1</dim>
					<dim>384</dim>
					<dim>30</dim>
					<dim>54</dim>
				</port>
			</output>
		</layer>
		<layer id="120" name="437" type="Clamp" version="opset1">
			<data max="6.0" min="0.0"/>
			<input>
				<port id="0">
					<dim>1</dim>
					<dim>384</dim>
					<dim>30</dim>
					<dim>54</dim>
				</port>
			</input>
			<output>
				<port id="1" precision="FP16">
					<dim>1</dim>
					<dim>384</dim>
					<dim>30</dim>
					<dim>54</dim>
				</port>
			</output>
		</layer>
		<layer id="121" name="439/mean/Fused_Mul_4607546077_const" type="Const" version="opset1">
			<data element_type="f16" offset="210496" shape="64,384,1,1" size="49152"/>
			<output>
				<port id="1" precision="FP16">
					<dim>64</dim>
					<dim>384</dim>
					<dim>1</dim>
					<dim>1</dim>
				</port>
			</output>
		</layer>
		<layer id="122" name="438" type="Convolution" version="opset1">
			<data dilations="1,1" output_padding="0,0" pads_begin="0,0" pads_end="0,0" strides="1,1"/>
			<input>
				<port id="0">
					<dim>1</dim>
					<dim>384</dim>
					<dim>30</dim>
					<dim>54</dim>
				</port>
				<port id="1">
					<dim>64</dim>
					<dim>384</dim>
					<dim>1</dim>
					<dim>1</dim>
				</port>
			</input>
			<output>
				<port id="2" precision="FP16">
					<dim>1</dim>
					<dim>64</dim>
					<dim>30</dim>
					<dim>54</dim>
				</port>
			</output>
		</layer>
		<layer id="123" name="data_add_420884209343583/EltwiseUnsqueeze44413_const" type="Const" version="opset1">
			<data element_type="f16" offset="259648" shape="1,64,1,1" size="128"/>
			<output>
				<port id="1" precision="FP16">
					<dim>1</dim>
					<dim>64</dim>
					<dim>1</dim>
					<dim>1</dim>
				</port>
			</output>
		</layer>
		<layer id="124" name="439/variance/Fused_Add_" type="Add" version="opset1">
			<input>
				<port id="0">
					<dim>1</dim>
					<dim>64</dim>
					<dim>30</dim>
					<dim>54</dim>
				</port>
				<port id="1">
					<dim>1</dim>
					<dim>64</dim>
					<dim>1</dim>
					<dim>1</dim>
				</port>
			</input>
			<output>
				<port id="2" precision="FP16">
					<dim>1</dim>
					<dim>64</dim>
					<dim>30</dim>
					<dim>54</dim>
				</port>
			</output>
		</layer>
		<layer id="125" name="440" type="Add" version="opset1">
			<input>
				<port id="0">
					<dim>1</dim>
					<dim>64</dim>
					<dim>30</dim>
					<dim>54</dim>
				</port>
				<port id="1">
					<dim>1</dim>
					<dim>64</dim>
					<dim>30</dim>
					<dim>54</dim>
				</port>
			</input>
			<output>
				<port id="2" precision="FP16">
					<dim>1</dim>
					<dim>64</dim>
					<dim>30</dim>
					<dim>54</dim>
				</port>
			</output>
		</layer>
		<layer id="126" name="442/mean/Fused_Mul_4607946081_const" type="Const" version="opset1">
			<data element_type="f16" offset="259776" shape="384,64,1,1" size="49152"/>
			<output>
				<port id="1" precision="FP16">
					<dim>384</dim>
					<dim>64</dim>
					<dim>1</dim>
					<dim>1</dim>
				</port>
			</output>
		</layer>
		<layer id="127" name="441" type="Convolution" version="opset1">
			<data dilations="1,1" output_padding="0,0" pads_begin="0,0" pads_end="0,0" strides="1,1"/>
			<input>
				<port id="0">
					<dim>1</dim>
					<dim>64</dim>
					<dim>30</dim>
					<dim>54</dim>
				</port>
				<port id="1">
					<dim>384</dim>
					<dim>64</dim>
					<dim>1</dim>
					<dim>1</dim>
				</port>
			</input>
			<output>
				<port id="2" precision="FP16">
					<dim>1</dim>
					<dim>384</dim>
					<dim>30</dim>
					<dim>54</dim>
				</port>
			</output>
		</layer>
		<layer id="128" name="data_add_420964210143585/EltwiseUnsqueeze44421_const" type="Const" version="opset1">
			<data element_type="f16" offset="308928" shape="1,384,1,1" size="768"/>
			<output>
				<port id="1" precision="FP16">
					<dim>1</dim>
					<dim>384</dim>
					<dim>1</dim>
					<dim>1</dim>
				</port>
			</output>
		</layer>
		<layer id="129" name="442/variance/Fused_Add_" type="Add" version="opset1">
			<input>
				<port id="0">
					<dim>1</dim>
					<dim>384</dim>
					<dim>30</dim>
					<dim>54</dim>
				</port>
				<port id="1">
					<dim>1</dim>
					<dim>384</dim>
					<dim>1</dim>
					<dim>1</dim>
				</port>
			</input>
			<output>
				<port id="2" precision="FP16">
					<dim>1</dim>
					<dim>384</dim>
					<dim>30</dim>
					<dim>54</dim>
				</port>
			</output>
		</layer>
		<layer id="130" name="443" type="Clamp" version="opset1">
			<data max="6.0" min="0.0"/>
			<input>
				<port id="0">
					<dim>1</dim>
					<dim>384</dim>
					<dim>30</dim>
					<dim>54</dim>
				</port>
			</input>
			<output>
				<port id="1" precision="FP16">
					<dim>1</dim>
					<dim>384</dim>
					<dim>30</dim>
					<dim>54</dim>
				</port>
			</output>
		</layer>
		<layer id="131" name="9049490497_const" type="Const" version="opset1">
			<data element_type="f16" offset="309696" shape="384,1,1,3,3" size="6912"/>
			<output>
				<port id="1" precision="FP16">
					<dim>384</dim>
					<dim>1</dim>
					<dim>1</dim>
					<dim>3</dim>
					<dim>3</dim>
				</port>
			</output>
		</layer>
		<layer id="132" name="444" type="GroupConvolution" version="opset1">
			<data dilations="1,1" output_padding="0,0" pads_begin="1,1" pads_end="1,1" strides="1,1"/>
			<input>
				<port id="0">
					<dim>1</dim>
					<dim>384</dim>
					<dim>30</dim>
					<dim>54</dim>
				</port>
				<port id="1">
					<dim>384</dim>
					<dim>1</dim>
					<dim>1</dim>
					<dim>3</dim>
					<dim>3</dim>
				</port>
			</input>
			<output>
				<port id="2" precision="FP16">
					<dim>1</dim>
					<dim>384</dim>
					<dim>30</dim>
					<dim>54</dim>
				</port>
			</output>
		</layer>
		<layer id="133" name="data_add_421044210943587/EltwiseUnsqueeze44429_const" type="Const" version="opset1">
			<data element_type="f16" offset="316608" shape="1,384,1,1" size="768"/>
			<output>
				<port id="1" precision="FP16">
					<dim>1</dim>
					<dim>384</dim>
					<dim>1</dim>
					<dim>1</dim>
				</port>
			</output>
		</layer>
		<layer id="134" name="445/variance/Fused_Add_" type="Add" version="opset1">
			<input>
				<port id="0">
					<dim>1</dim>
					<dim>384</dim>
					<dim>30</dim>
					<dim>54</dim>
				</port>
				<port id="1">
					<dim>1</dim>
					<dim>384</dim>
					<dim>1</dim>
					<dim>1</dim>
				</port>
			</input>
			<output>
				<port id="2" precision="FP16">
					<dim>1</dim>
					<dim>384</dim>
					<dim>30</dim>
					<dim>54</dim>
				</port>
			</output>
		</layer>
		<layer id="135" name="446" type="Clamp" version="opset1">
			<data max="6.0" min="0.0"/>
			<input>
				<port id="0">
					<dim>1</dim>
					<dim>384</dim>
					<dim>30</dim>
					<dim>54</dim>
				</port>
			</input>
			<output>
				<port id="1" precision="FP16">
					<dim>1</dim>
					<dim>384</dim>
					<dim>30</dim>
					<dim>54</dim>
				</port>
			</output>
		</layer>
		<layer id="136" name="448/mean/Fused_Mul_4608746089_const" type="Const" version="opset1">
			<data element_type="f16" offset="317376" shape="64,384,1,1" size="49152"/>
			<output>
				<port id="1" precision="FP16">
					<dim>64</dim>
					<dim>384</dim>
					<dim>1</dim>
					<dim>1</dim>
				</port>
			</output>
		</layer>
		<layer id="137" name="447" type="Convolution" version="opset1">
			<data dilations="1,1" output_padding="0,0" pads_begin="0,0" pads_end="0,0" strides="1,1"/>
			<input>
				<port id="0">
					<dim>1</dim>
					<dim>384</dim>
					<dim>30</dim>
					<dim>54</dim>
				</port>
				<port id="1">
					<dim>64</dim>
					<dim>384</dim>
					<dim>1</dim>
					<dim>1</dim>
				</port>
			</input>
			<output>
				<port id="2" precision="FP16">
					<dim>1</dim>
					<dim>64</dim>
					<dim>30</dim>
					<dim>54</dim>
				</port>
			</output>
		</layer>
		<layer id="138" name="data_add_421124211743589/EltwiseUnsqueeze44437_const" type="Const" version="opset1">
			<data element_type="f16" offset="366528" shape="1,64,1,1" size="128"/>
			<output>
				<port id="1" precision="FP16">
					<dim>1</dim>
					<dim>64</dim>
					<dim>1</dim>
					<dim>1</dim>
				</port>
			</output>
		</layer>
		<layer id="139" name="448/variance/Fused_Add_" type="Add" version="opset1">
			<input>
				<port id="0">
					<dim>1</dim>
					<dim>64</dim>
					<dim>30</dim>
					<dim>54</dim>
				</port>
				<port id="1">
					<dim>1</dim>
					<dim>64</dim>
					<dim>1</dim>
					<dim>1</dim>
				</port>
			</input>
			<output>
				<port id="2" precision="FP16">
					<dim>1</dim>
					<dim>64</dim>
					<dim>30</dim>
					<dim>54</dim>
				</port>
			</output>
		</layer>
		<layer id="140" name="449" type="Add" version="opset1">
			<input>
				<port id="0">
					<dim>1</dim>
					<dim>64</dim>
					<dim>30</dim>
					<dim>54</dim>
				</port>
				<port id="1">
					<dim>1</dim>
					<dim>64</dim>
					<dim>30</dim>
					<dim>54</dim>
				</port>
			</input>
			<output>
				<port id="2" precision="FP16">
					<dim>1</dim>
					<dim>64</dim>
					<dim>30</dim>
					<dim>54</dim>
				</port>
			</output>
		</layer>
		<layer id="141" name="451/mean/Fused_Mul_4609146093_const" type="Const" version="opset1">
			<data element_type="f16" offset="366656" shape="384,64,1,1" size="49152"/>
			<output>
				<port id="1" precision="FP16">
					<dim>384</dim>
					<dim>64</dim>
					<dim>1</dim>
					<dim>1</dim>
				</port>
			</output>
		</layer>
		<layer id="142" name="450" type="Convolution" version="opset1">
			<data dilations="1,1" output_padding="0,0" pads_begin="0,0" pads_end="0,0" strides="1,1"/>
			<input>
				<port id="0">
					<dim>1</dim>
					<dim>64</dim>
					<dim>30</dim>
					<dim>54</dim>
				</port>
				<port id="1">
					<dim>384</dim>
					<dim>64</dim>
					<dim>1</dim>
					<dim>1</dim>
				</port>
			</input>
			<output>
				<port id="2" precision="FP16">
					<dim>1</dim>
					<dim>384</dim>
					<dim>30</dim>
					<dim>54</dim>
				</port>
			</output>
		</layer>
		<layer id="143" name="data_add_421204212543591/EltwiseUnsqueeze44445_const" type="Const" version="opset1">
			<data element_type="f16" offset="415808" shape="1,384,1,1" size="768"/>
			<output>
				<port id="1" precision="FP16">
					<dim>1</dim>
					<dim>384</dim>
					<dim>1</dim>
					<dim>1</dim>
				</port>
			</output>
		</layer>
		<layer id="144" name="451/variance/Fused_Add_" type="Add" version="opset1">
			<input>
				<port id="0">
					<dim>1</dim>
					<dim>384</dim>
					<dim>30</dim>
					<dim>54</dim>
				</port>
				<port id="1">
					<dim>1</dim>
					<dim>384</dim>
					<dim>1</dim>
					<dim>1</dim>
				</port>
			</input>
			<output>
				<port id="2" precision="FP16">
					<dim>1</dim>
					<dim>384</dim>
					<dim>30</dim>
					<dim>54</dim>
				</port>
			</output>
		</layer>
		<layer id="145" name="452" type="Clamp" version="opset1">
			<data max="6.0" min="0.0"/>
			<input>
				<port id="0">
					<dim>1</dim>
					<dim>384</dim>
					<dim>30</dim>
					<dim>54</dim>
				</port>
			</input>
			<output>
				<port id="1" precision="FP16">
					<dim>1</dim>
					<dim>384</dim>
					<dim>30</dim>
					<dim>54</dim>
				</port>
			</output>
		</layer>
		<layer id="146" name="9047490477_const" type="Const" version="opset1">
			<data element_type="f16" offset="416576" shape="384,1,1,3,3" size="6912"/>
			<output>
				<port id="1" precision="FP16">
					<dim>384</dim>
					<dim>1</dim>
					<dim>1</dim>
					<dim>3</dim>
					<dim>3</dim>
				</port>
			</output>
		</layer>
		<layer id="147" name="453" type="GroupConvolution" version="opset1">
			<data dilations="1,1" output_padding="0,0" pads_begin="1,1" pads_end="1,1" strides="1,1"/>
			<input>
				<port id="0">
					<dim>1</dim>
					<dim>384</dim>
					<dim>30</dim>
					<dim>54</dim>
				</port>
				<port id="1">
					<dim>384</dim>
					<dim>1</dim>
					<dim>1</dim>
					<dim>3</dim>
					<dim>3</dim>
				</port>
			</input>
			<output>
				<port id="2" precision="FP16">
					<dim>1</dim>
					<dim>384</dim>
					<dim>30</dim>
					<dim>54</dim>
				</port>
			</output>
		</layer>
		<layer id="148" name="data_add_421284213343593/EltwiseUnsqueeze44453_const" type="Const" version="opset1">
			<data element_type="f16" offset="423488" shape="1,384,1,1" size="768"/>
			<output>
				<port id="1" precision="FP16">
					<dim>1</dim>
					<dim>384</dim>
					<dim>1</dim>
					<dim>1</dim>
				</port>
			</output>
		</layer>
		<layer id="149" name="454/variance/Fused_Add_" type="Add" version="opset1">
			<input>
				<port id="0">
					<dim>1</dim>
					<dim>384</dim>
					<dim>30</dim>
					<dim>54</dim>
				</port>
				<port id="1">
					<dim>1</dim>
					<dim>384</dim>
					<dim>1</dim>
					<dim>1</dim>
				</port>
			</input>
			<output>
				<port id="2" precision="FP16">
					<dim>1</dim>
					<dim>384</dim>
					<dim>30</dim>
					<dim>54</dim>
				</port>
			</output>
		</layer>
		<layer id="150" name="455" type="Clamp" version="opset1">
			<data max="6.0" min="0.0"/>
			<input>
				<port id="0">
					<dim>1</dim>
					<dim>384</dim>
					<dim>30</dim>
					<dim>54</dim>
				</port>
			</input>
			<output>
				<port id="1" precision="FP16">
					<dim>1</dim>
					<dim>384</dim>
					<dim>30</dim>
					<dim>54</dim>
				</port>
			</output>
		</layer>
		<layer id="151" name="457/mean/Fused_Mul_4609946101_const" type="Const" version="opset1">
			<data element_type="f16" offset="424256" shape="64,384,1,1" size="49152"/>
			<output>
				<port id="1" precision="FP16">
					<dim>64</dim>
					<dim>384</dim>
					<dim>1</dim>
					<dim>1</dim>
				</port>
			</output>
		</layer>
		<layer id="152" name="456" type="Convolution" version="opset1">
			<data dilations="1,1" output_padding="0,0" pads_begin="0,0" pads_end="0,0" strides="1,1"/>
			<input>
				<port id="0">
					<dim>1</dim>
					<dim>384</dim>
					<dim>30</dim>
					<dim>54</dim>
				</port>
				<port id="1">
					<dim>64</dim>
					<dim>384</dim>
					<dim>1</dim>
					<dim>1</dim>
				</port>
			</input>
			<output>
				<port id="2" precision="FP16">
					<dim>1</dim>
					<dim>64</dim>
					<dim>30</dim>
					<dim>54</dim>
				</port>
			</output>
		</layer>
		<layer id="153" name="data_add_421364214143595/EltwiseUnsqueeze44461_const" type="Const" version="opset1">
			<data element_type="f16" offset="473408" shape="1,64,1,1" size="128"/>
			<output>
				<port id="1" precision="FP16">
					<dim>1</dim>
					<dim>64</dim>
					<dim>1</dim>
					<dim>1</dim>
				</port>
			</output>
		</layer>
		<layer id="154" name="457/variance/Fused_Add_" type="Add" version="opset1">
			<input>
				<port id="0">
					<dim>1</dim>
					<dim>64</dim>
					<dim>30</dim>
					<dim>54</dim>
				</port>
				<port id="1">
					<dim>1</dim>
					<dim>64</dim>
					<dim>1</dim>
					<dim>1</dim>
				</port>
			</input>
			<output>
				<port id="2" precision="FP16">
					<dim>1</dim>
					<dim>64</dim>
					<dim>30</dim>
					<dim>54</dim>
				</port>
			</output>
		</layer>
		<layer id="155" name="458" type="Add" version="opset1">
			<input>
				<port id="0">
					<dim>1</dim>
					<dim>64</dim>
					<dim>30</dim>
					<dim>54</dim>
				</port>
				<port id="1">
					<dim>1</dim>
					<dim>64</dim>
					<dim>30</dim>
					<dim>54</dim>
				</port>
			</input>
			<output>
				<port id="2" precision="FP16">
					<dim>1</dim>
					<dim>64</dim>
					<dim>30</dim>
					<dim>54</dim>
				</port>
			</output>
		</layer>
		<layer id="156" name="460/mean/Fused_Mul_4610346105_const" type="Const" version="opset1">
			<data element_type="f16" offset="473536" shape="384,64,1,1" size="49152"/>
			<output>
				<port id="1" precision="FP16">
					<dim>384</dim>
					<dim>64</dim>
					<dim>1</dim>
					<dim>1</dim>
				</port>
			</output>
		</layer>
		<layer id="157" name="459" type="Convolution" version="opset1">
			<data dilations="1,1" output_padding="0,0" pads_begin="0,0" pads_end="0,0" strides="1,1"/>
			<input>
				<port id="0">
					<dim>1</dim>
					<dim>64</dim>
					<dim>30</dim>
					<dim>54</dim>
				</port>
				<port id="1">
					<dim>384</dim>
					<dim>64</dim>
					<dim>1</dim>
					<dim>1</dim>
				</port>
			</input>
			<output>
				<port id="2" precision="FP16">
					<dim>1</dim>
					<dim>384</dim>
					<dim>30</dim>
					<dim>54</dim>
				</port>
			</output>
		</layer>
		<layer id="158" name="data_add_421444214943597/EltwiseUnsqueeze44469_const" type="Const" version="opset1">
			<data element_type="f16" offset="522688" shape="1,384,1,1" size="768"/>
			<output>
				<port id="1" precision="FP16">
					<dim>1</dim>
					<dim>384</dim>
					<dim>1</dim>
					<dim>1</dim>
				</port>
			</output>
		</layer>
		<layer id="159" name="460/variance/Fused_Add_" type="Add" version="opset1">
			<input>
				<port id="0">
					<dim>1</dim>
					<dim>384</dim>
					<dim>30</dim>
					<dim>54</dim>
				</port>
				<port id="1">
					<dim>1</dim>
					<dim>384</dim>
					<dim>1</dim>
					<dim>1</dim>
				</port>
			</input>
			<output>
				<port id="2" precision="FP16">
					<dim>1</dim>
					<dim>384</dim>
					<dim>30</dim>
					<dim>54</dim>
				</port>
			</output>
		</layer>
		<layer id="160" name="461" type="Clamp" version="opset1">
			<data max="6.0" min="0.0"/>
			<input>
				<port id="0">
					<dim>1</dim>
					<dim>384</dim>
					<dim>30</dim>
					<dim>54</dim>
				</port>
			</input>
			<output>
				<port id="1" precision="FP16">
					<dim>1</dim>
					<dim>384</dim>
					<dim>30</dim>
					<dim>54</dim>
				</port>
			</output>
		</layer>
		<layer id="161" name="9047090473_const" type="Const" version="opset1">
			<data element_type="f16" offset="523456" shape="384,1,1,3,3" size="6912"/>
			<output>
				<port id="1" precision="FP16">
					<dim>384</dim>
					<dim>1</dim>
					<dim>1</dim>
					<dim>3</dim>
					<dim>3</dim>
				</port>
			</output>
		</layer>
		<layer id="162" name="462" type="GroupConvolution" version="opset1">
			<data dilations="1,1" output_padding="0,0" pads_begin="1,1" pads_end="1,1" strides="1,1"/>
			<input>
				<port id="0">
					<dim>1</dim>
					<dim>384</dim>
					<dim>30</dim>
					<dim>54</dim>
				</port>
				<port id="1">
					<dim>384</dim>
					<dim>1</dim>
					<dim>1</dim>
					<dim>3</dim>
					<dim>3</dim>
				</port>
			</input>
			<output>
				<port id="2" precision="FP16">
					<dim>1</dim>
					<dim>384</dim>
					<dim>30</dim>
					<dim>54</dim>
				</port>
			</output>
		</layer>
		<layer id="163" name="data_add_421524215743599/EltwiseUnsqueeze44477_const" type="Const" version="opset1">
			<data element_type="f16" offset="530368" shape="1,384,1,1" size="768"/>
			<output>
				<port id="1" precision="FP16">
					<dim>1</dim>
					<dim>384</dim>
					<dim>1</dim>
					<dim>1</dim>
				</port>
			</output>
		</layer>
		<layer id="164" name="463/variance/Fused_Add_" type="Add" version="opset1">
			<input>
				<port id="0">
					<dim>1</dim>
					<dim>384</dim>
					<dim>30</dim>
					<dim>54</dim>
				</port>
				<port id="1">
					<dim>1</dim>
					<dim>384</dim>
					<dim>1</dim>
					<dim>1</dim>
				</port>
			</input>
			<output>
				<port id="2" precision="FP16">
					<dim>1</dim>
					<dim>384</dim>
					<dim>30</dim>
					<dim>54</dim>
				</port>
			</output>
		</layer>
		<layer id="165" name="464" type="Clamp" version="opset1">
			<data max="6.0" min="0.0"/>
			<input>
				<port id="0">
					<dim>1</dim>
					<dim>384</dim>
					<dim>30</dim>
					<dim>54</dim>
				</port>
			</input>
			<output>
				<port id="1" precision="FP16">
					<dim>1</dim>
					<dim>384</dim>
					<dim>30</dim>
					<dim>54</dim>
				</port>
			</output>
		</layer>
		<layer id="166" name="466/mean/Fused_Mul_4611146113_const" type="Const" version="opset1">
			<data element_type="f16" offset="531136" shape="96,384,1,1" size="73728"/>
			<output>
				<port id="1" precision="FP16">
					<dim>96</dim>
					<dim>384</dim>
					<dim>1</dim>
					<dim>1</dim>
				</port>
			</output>
		</layer>
		<layer id="167" name="465" type="Convolution" version="opset1">
			<data dilations="1,1" output_padding="0,0" pads_begin="0,0" pads_end="0,0" strides="1,1"/>
			<input>
				<port id="0">
					<dim>1</dim>
					<dim>384</dim>
					<dim>30</dim>
					<dim>54</dim>
				</port>
				<port id="1">
					<dim>96</dim>
					<dim>384</dim>
					<dim>1</dim>
					<dim>1</dim>
				</port>
			</input>
			<output>
				<port id="2" precision="FP16">
					<dim>1</dim>
					<dim>96</dim>
					<dim>30</dim>
					<dim>54</dim>
				</port>
			</output>
		</layer>
		<layer id="168" name="data_add_421604216543601/EltwiseUnsqueeze44485_const" type="Const" version="opset1">
			<data element_type="f16" offset="604864" shape="1,96,1,1" size="192"/>
			<output>
				<port id="1" precision="FP16">
					<dim>1</dim>
					<dim>96</dim>
					<dim>1</dim>
					<dim>1</dim>
				</port>
			</output>
		</layer>
		<layer id="169" name="466/variance/Fused_Add_" type="Add" version="opset1">
			<input>
				<port id="0">
					<dim>1</dim>
					<dim>96</dim>
					<dim>30</dim>
					<dim>54</dim>
				</port>
				<port id="1">
					<dim>1</dim>
					<dim>96</dim>
					<dim>1</dim>
					<dim>1</dim>
				</port>
			</input>
			<output>
				<port id="2" precision="FP16">
					<dim>1</dim>
					<dim>96</dim>
					<dim>30</dim>
					<dim>54</dim>
				</port>
			</output>
		</layer>
		<layer id="170" name="468/mean/Fused_Mul_4611546117_const" type="Const" version="opset1">
			<data element_type="f16" offset="605056" shape="576,96,1,1" size="110592"/>
			<output>
				<port id="1" precision="FP16">
					<dim>576</dim>
					<dim>96</dim>
					<dim>1</dim>
					<dim>1</dim>
				</port>
			</output>
		</layer>
		<layer id="171" name="467" type="Convolution" version="opset1">
			<data dilations="1,1" output_padding="0,0" pads_begin="0,0" pads_end="0,0" strides="1,1"/>
			<input>
				<port id="0">
					<dim>1</dim>
					<dim>96</dim>
					<dim>30</dim>
					<dim>54</dim>
				</port>
				<port id="1">
					<dim>576</dim>
					<dim>96</dim>
					<dim>1</dim>
					<dim>1</dim>
				</port>
			</input>
			<output>
				<port id="2" precision="FP16">
					<dim>1</dim>
					<dim>576</dim>
					<dim>30</dim>
					<dim>54</dim>
				</port>
			</output>
		</layer>
		<layer id="172" name="data_add_421684217343603/EltwiseUnsqueeze44493_const" type="Const" version="opset1">
			<data element_type="f16" offset="715648" shape="1,576,1,1" size="1152"/>
			<output>
				<port id="1" precision="FP16">
					<dim>1</dim>
					<dim>576</dim>
					<dim>1</dim>
					<dim>1</dim>
				</port>
			</output>
		</layer>
		<layer id="173" name="468/variance/Fused_Add_" type="Add" version="opset1">
			<input>
				<port id="0">
					<dim>1</dim>
					<dim>576</dim>
					<dim>30</dim>
					<dim>54</dim>
				</port>
				<port id="1">
					<dim>1</dim>
					<dim>576</dim>
					<dim>1</dim>
					<dim>1</dim>
				</port>
			</input>
			<output>
				<port id="2" precision="FP16">
					<dim>1</dim>
					<dim>576</dim>
					<dim>30</dim>
					<dim>54</dim>
				</port>
			</output>
		</layer>
		<layer id="174" name="469" type="Clamp" version="opset1">
			<data max="6.0" min="0.0"/>
			<input>
				<port id="0">
					<dim>1</dim>
					<dim>576</dim>
					<dim>30</dim>
					<dim>54</dim>
				</port>
			</input>
			<output>
				<port id="1" precision="FP16">
					<dim>1</dim>
					<dim>576</dim>
					<dim>30</dim>
					<dim>54</dim>
				</port>
			</output>
		</layer>
		<layer id="175" name="9045890461_const" type="Const" version="opset1">
			<data element_type="f16" offset="716800" shape="576,1,1,3,3" size="10368"/>
			<output>
				<port id="1" precision="FP16">
					<dim>576</dim>
					<dim>1</dim>
					<dim>1</dim>
					<dim>3</dim>
					<dim>3</dim>
				</port>
			</output>
		</layer>
		<layer id="176" name="470" type="GroupConvolution" version="opset1">
			<data dilations="1,1" output_padding="0,0" pads_begin="1,1" pads_end="1,1" strides="1,1"/>
			<input>
				<port id="0">
					<dim>1</dim>
					<dim>576</dim>
					<dim>30</dim>
					<dim>54</dim>
				</port>
				<port id="1">
					<dim>576</dim>
					<dim>1</dim>
					<dim>1</dim>
					<dim>3</dim>
					<dim>3</dim>
				</port>
			</input>
			<output>
				<port id="2" precision="FP16">
					<dim>1</dim>
					<dim>576</dim>
					<dim>30</dim>
					<dim>54</dim>
				</port>
			</output>
		</layer>
		<layer id="177" name="data_add_421764218143605/EltwiseUnsqueeze44501_const" type="Const" version="opset1">
			<data element_type="f16" offset="727168" shape="1,576,1,1" size="1152"/>
			<output>
				<port id="1" precision="FP16">
					<dim>1</dim>
					<dim>576</dim>
					<dim>1</dim>
					<dim>1</dim>
				</port>
			</output>
		</layer>
		<layer id="178" name="471/variance/Fused_Add_" type="Add" version="opset1">
			<input>
				<port id="0">
					<dim>1</dim>
					<dim>576</dim>
					<dim>30</dim>
					<dim>54</dim>
				</port>
				<port id="1">
					<dim>1</dim>
					<dim>576</dim>
					<dim>1</dim>
					<dim>1</dim>
				</port>
			</input>
			<output>
				<port id="2" precision="FP16">
					<dim>1</dim>
					<dim>576</dim>
					<dim>30</dim>
					<dim>54</dim>
				</port>
			</output>
		</layer>
		<layer id="179" name="472" type="Clamp" version="opset1">
			<data max="6.0" min="0.0"/>
			<input>
				<port id="0">
					<dim>1</dim>
					<dim>576</dim>
					<dim>30</dim>
					<dim>54</dim>
				</port>
			</input>
			<output>
				<port id="1" precision="FP16">
					<dim>1</dim>
					<dim>576</dim>
					<dim>30</dim>
					<dim>54</dim>
				</port>
			</output>
		</layer>
		<layer id="180" name="474/mean/Fused_Mul_4612346125_const" type="Const" version="opset1">
			<data element_type="f16" offset="728320" shape="96,576,1,1" size="110592"/>
			<output>
				<port id="1" precision="FP16">
					<dim>96</dim>
					<dim>576</dim>
					<dim>1</dim>
					<dim>1</dim>
				</port>
			</output>
		</layer>
		<layer id="181" name="473" type="Convolution" version="opset1">
			<data dilations="1,1" output_padding="0,0" pads_begin="0,0" pads_end="0,0" strides="1,1"/>
			<input>
				<port id="0">
					<dim>1</dim>
					<dim>576</dim>
					<dim>30</dim>
					<dim>54</dim>
				</port>
				<port id="1">
					<dim>96</dim>
					<dim>576</dim>
					<dim>1</dim>
					<dim>1</dim>
				</port>
			</input>
			<output>
				<port id="2" precision="FP16">
					<dim>1</dim>
					<dim>96</dim>
					<dim>30</dim>
					<dim>54</dim>
				</port>
			</output>
		</layer>
		<layer id="182" name="data_add_421844218943607/EltwiseUnsqueeze44509_const" type="Const" version="opset1">
			<data element_type="f16" offset="838912" shape="1,96,1,1" size="192"/>
			<output>
				<port id="1" precision="FP16">
					<dim>1</dim>
					<dim>96</dim>
					<dim>1</dim>
					<dim>1</dim>
				</port>
			</output>
		</layer>
		<layer id="183" name="474/variance/Fused_Add_" type="Add" version="opset1">
			<input>
				<port id="0">
					<dim>1</dim>
					<dim>96</dim>
					<dim>30</dim>
					<dim>54</dim>
				</port>
				<port id="1">
					<dim>1</dim>
					<dim>96</dim>
					<dim>1</dim>
					<dim>1</dim>
				</port>
			</input>
			<output>
				<port id="2" precision="FP16">
					<dim>1</dim>
					<dim>96</dim>
					<dim>30</dim>
					<dim>54</dim>
				</port>
			</output>
		</layer>
		<layer id="184" name="475" type="Add" version="opset1">
			<input>
				<port id="0">
					<dim>1</dim>
					<dim>96</dim>
					<dim>30</dim>
					<dim>54</dim>
				</port>
				<port id="1">
					<dim>1</dim>
					<dim>96</dim>
					<dim>30</dim>
					<dim>54</dim>
				</port>
			</input>
			<output>
				<port id="2" precision="FP16">
					<dim>1</dim>
					<dim>96</dim>
					<dim>30</dim>
					<dim>54</dim>
				</port>
			</output>
		</layer>
		<layer id="185" name="477/mean/Fused_Mul_4612746129_const" type="Const" version="opset1">
			<data element_type="f16" offset="839104" shape="576,96,1,1" size="110592"/>
			<output>
				<port id="1" precision="FP16">
					<dim>576</dim>
					<dim>96</dim>
					<dim>1</dim>
					<dim>1</dim>
				</port>
			</output>
		</layer>
		<layer id="186" name="476" type="Convolution" version="opset1">
			<data dilations="1,1" output_padding="0,0" pads_begin="0,0" pads_end="0,0" strides="1,1"/>
			<input>
				<port id="0">
					<dim>1</dim>
					<dim>96</dim>
					<dim>30</dim>
					<dim>54</dim>
				</port>
				<port id="1">
					<dim>576</dim>
					<dim>96</dim>
					<dim>1</dim>
					<dim>1</dim>
				</port>
			</input>
			<output>
				<port id="2" precision="FP16">
					<dim>1</dim>
					<dim>576</dim>
					<dim>30</dim>
					<dim>54</dim>
				</port>
			</output>
		</layer>
		<layer id="187" name="data_add_421924219743609/EltwiseUnsqueeze44517_const" type="Const" version="opset1">
			<data element_type="f16" offset="949696" shape="1,576,1,1" size="1152"/>
			<output>
				<port id="1" precision="FP16">
					<dim>1</dim>
					<dim>576</dim>
					<dim>1</dim>
					<dim>1</dim>
				</port>
			</output>
		</layer>
		<layer id="188" name="477/variance/Fused_Add_" type="Add" version="opset1">
			<input>
				<port id="0">
					<dim>1</dim>
					<dim>576</dim>
					<dim>30</dim>
					<dim>54</dim>
				</port>
				<port id="1">
					<dim>1</dim>
					<dim>576</dim>
					<dim>1</dim>
					<dim>1</dim>
				</port>
			</input>
			<output>
				<port id="2" precision="FP16">
					<dim>1</dim>
					<dim>576</dim>
					<dim>30</dim>
					<dim>54</dim>
				</port>
			</output>
		</layer>
		<layer id="189" name="478" type="Clamp" version="opset1">
			<data max="6.0" min="0.0"/>
			<input>
				<port id="0">
					<dim>1</dim>
					<dim>576</dim>
					<dim>30</dim>
					<dim>54</dim>
				</port>
			</input>
			<output>
				<port id="1" precision="FP16">
					<dim>1</dim>
					<dim>576</dim>
					<dim>30</dim>
					<dim>54</dim>
				</port>
			</output>
		</layer>
		<layer id="190" name="9049890501_const" type="Const" version="opset1">
			<data element_type="f16" offset="950848" shape="576,1,1,3,3" size="10368"/>
			<output>
				<port id="1" precision="FP16">
					<dim>576</dim>
					<dim>1</dim>
					<dim>1</dim>
					<dim>3</dim>
					<dim>3</dim>
				</port>
			</output>
		</layer>
		<layer id="191" name="479" type="GroupConvolution" version="opset1">
			<data dilations="1,1" output_padding="0,0" pads_begin="1,1" pads_end="1,1" strides="1,1"/>
			<input>
				<port id="0">
					<dim>1</dim>
					<dim>576</dim>
					<dim>30</dim>
					<dim>54</dim>
				</port>
				<port id="1">
					<dim>576</dim>
					<dim>1</dim>
					<dim>1</dim>
					<dim>3</dim>
					<dim>3</dim>
				</port>
			</input>
			<output>
				<port id="2" precision="FP16">
					<dim>1</dim>
					<dim>576</dim>
					<dim>30</dim>
					<dim>54</dim>
				</port>
			</output>
		</layer>
		<layer id="192" name="data_add_422004220543611/EltwiseUnsqueeze44525_const" type="Const" version="opset1">
			<data element_type="f16" offset="961216" shape="1,576,1,1" size="1152"/>
			<output>
				<port id="1" precision="FP16">
					<dim>1</dim>
					<dim>576</dim>
					<dim>1</dim>
					<dim>1</dim>
				</port>
			</output>
		</layer>
		<layer id="193" name="480/variance/Fused_Add_" type="Add" version="opset1">
			<input>
				<port id="0">
					<dim>1</dim>
					<dim>576</dim>
					<dim>30</dim>
					<dim>54</dim>
				</port>
				<port id="1">
					<dim>1</dim>
					<dim>576</dim>
					<dim>1</dim>
					<dim>1</dim>
				</port>
			</input>
			<output>
				<port id="2" precision="FP16">
					<dim>1</dim>
					<dim>576</dim>
					<dim>30</dim>
					<dim>54</dim>
				</port>
			</output>
		</layer>
		<layer id="194" name="481" type="Clamp" version="opset1">
			<data max="6.0" min="0.0"/>
			<input>
				<port id="0">
					<dim>1</dim>
					<dim>576</dim>
					<dim>30</dim>
					<dim>54</dim>
				</port>
			</input>
			<output>
				<port id="1" precision="FP16">
					<dim>1</dim>
					<dim>576</dim>
					<dim>30</dim>
					<dim>54</dim>
				</port>
			</output>
		</layer>
		<layer id="195" name="483/mean/Fused_Mul_4613546137_const" type="Const" version="opset1">
			<data element_type="f16" offset="962368" shape="96,576,1,1" size="110592"/>
			<output>
				<port id="1" precision="FP16">
					<dim>96</dim>
					<dim>576</dim>
					<dim>1</dim>
					<dim>1</dim>
				</port>
			</output>
		</layer>
		<layer id="196" name="482" type="Convolution" version="opset1">
			<data dilations="1,1" output_padding="0,0" pads_begin="0,0" pads_end="0,0" strides="1,1"/>
			<input>
				<port id="0">
					<dim>1</dim>
					<dim>576</dim>
					<dim>30</dim>
					<dim>54</dim>
				</port>
				<port id="1">
					<dim>96</dim>
					<dim>576</dim>
					<dim>1</dim>
					<dim>1</dim>
				</port>
			</input>
			<output>
				<port id="2" precision="FP16">
					<dim>1</dim>
					<dim>96</dim>
					<dim>30</dim>
					<dim>54</dim>
				</port>
			</output>
		</layer>
		<layer id="197" name="data_add_422084221343613/EltwiseUnsqueeze44533_const" type="Const" version="opset1">
			<data element_type="f16" offset="1072960" shape="1,96,1,1" size="192"/>
			<output>
				<port id="1" precision="FP16">
					<dim>1</dim>
					<dim>96</dim>
					<dim>1</dim>
					<dim>1</dim>
				</port>
			</output>
		</layer>
		<layer id="198" name="483/variance/Fused_Add_" type="Add" version="opset1">
			<input>
				<port id="0">
					<dim>1</dim>
					<dim>96</dim>
					<dim>30</dim>
					<dim>54</dim>
				</port>
				<port id="1">
					<dim>1</dim>
					<dim>96</dim>
					<dim>1</dim>
					<dim>1</dim>
				</port>
			</input>
			<output>
				<port id="2" precision="FP16">
					<dim>1</dim>
					<dim>96</dim>
					<dim>30</dim>
					<dim>54</dim>
				</port>
			</output>
		</layer>
		<layer id="199" name="484" type="Add" version="opset1">
			<input>
				<port id="0">
					<dim>1</dim>
					<dim>96</dim>
					<dim>30</dim>
					<dim>54</dim>
				</port>
				<port id="1">
					<dim>1</dim>
					<dim>96</dim>
					<dim>30</dim>
					<dim>54</dim>
				</port>
			</input>
			<output>
				<port id="2" precision="FP16">
					<dim>1</dim>
					<dim>96</dim>
					<dim>30</dim>
					<dim>54</dim>
				</port>
			</output>
		</layer>
		<layer id="200" name="neck.lateral_convs.1.conv.weight/Output_0/Data__const" type="Const" version="opset1">
			<data element_type="f16" offset="1073152" shape="32,96,1,1" size="6144"/>
			<output>
				<port id="1" precision="FP16">
					<dim>32</dim>
					<dim>96</dim>
					<dim>1</dim>
					<dim>1</dim>
				</port>
			</output>
		</layer>
		<layer id="201" name="520/WithoutBiases" type="Convolution" version="opset1">
			<data dilations="1,1" output_padding="0,0" pads_begin="0,0" pads_end="0,0" strides="1,1"/>
			<input>
				<port id="0">
					<dim>1</dim>
					<dim>96</dim>
					<dim>30</dim>
					<dim>54</dim>
				</port>
				<port id="1">
					<dim>32</dim>
					<dim>96</dim>
					<dim>1</dim>
					<dim>1</dim>
				</port>
			</input>
			<output>
				<port id="2" precision="FP16">
					<dim>1</dim>
					<dim>32</dim>
					<dim>30</dim>
					<dim>54</dim>
				</port>
			</output>
		</layer>
		<layer id="202" name="520/Dims2587243446/EltwiseUnsqueeze44161_const" type="Const" version="opset1">
			<data element_type="f16" offset="1079296" shape="1,32,1,1" size="64"/>
			<output>
				<port id="1" precision="FP16">
					<dim>1</dim>
					<dim>32</dim>
					<dim>1</dim>
					<dim>1</dim>
				</port>
			</output>
		</layer>
		<layer id="203" name="520" type="Add" version="opset1">
			<input>
				<port id="0">
					<dim>1</dim>
					<dim>32</dim>
					<dim>30</dim>
					<dim>54</dim>
				</port>
				<port id="1">
					<dim>1</dim>
					<dim>32</dim>
					<dim>1</dim>
					<dim>1</dim>
				</port>
			</input>
			<output>
				<port id="2" precision="FP16">
					<dim>1</dim>
					<dim>32</dim>
					<dim>30</dim>
					<dim>54</dim>
				</port>
			</output>
		</layer>
		<layer id="204" name="486/mean/Fused_Mul_4613946141_const" type="Const" version="opset1">
			<data element_type="f16" offset="1079360" shape="576,96,1,1" size="110592"/>
			<output>
				<port id="1" precision="FP16">
					<dim>576</dim>
					<dim>96</dim>
					<dim>1</dim>
					<dim>1</dim>
				</port>
			</output>
		</layer>
		<layer id="205" name="485" type="Convolution" version="opset1">
			<data dilations="1,1" output_padding="0,0" pads_begin="0,0" pads_end="0,0" strides="1,1"/>
			<input>
				<port id="0">
					<dim>1</dim>
					<dim>96</dim>
					<dim>30</dim>
					<dim>54</dim>
				</port>
				<port id="1">
					<dim>576</dim>
					<dim>96</dim>
					<dim>1</dim>
					<dim>1</dim>
				</port>
			</input>
			<output>
				<port id="2" precision="FP16">
					<dim>1</dim>
					<dim>576</dim>
					<dim>30</dim>
					<dim>54</dim>
				</port>
			</output>
		</layer>
		<layer id="206" name="data_add_422164222143615/EltwiseUnsqueeze44541_const" type="Const" version="opset1">
			<data element_type="f16" offset="1189952" shape="1,576,1,1" size="1152"/>
			<output>
				<port id="1" precision="FP16">
					<dim>1</dim>
					<dim>576</dim>
					<dim>1</dim>
					<dim>1</dim>
				</port>
			</output>
		</layer>
		<layer id="207" name="486/variance/Fused_Add_" type="Add" version="opset1">
			<input>
				<port id="0">
					<dim>1</dim>
					<dim>576</dim>
					<dim>30</dim>
					<dim>54</dim>
				</port>
				<port id="1">
					<dim>1</dim>
					<dim>576</dim>
					<dim>1</dim>
					<dim>1</dim>
				</port>
			</input>
			<output>
				<port id="2" precision="FP16">
					<dim>1</dim>
					<dim>576</dim>
					<dim>30</dim>
					<dim>54</dim>
				</port>
			</output>
		</layer>
		<layer id="208" name="487" type="Clamp" version="opset1">
			<data max="6.0" min="0.0"/>
			<input>
				<port id="0">
					<dim>1</dim>
					<dim>576</dim>
					<dim>30</dim>
					<dim>54</dim>
				</port>
			</input>
			<output>
				<port id="1" precision="FP16">
					<dim>1</dim>
					<dim>576</dim>
					<dim>30</dim>
					<dim>54</dim>
				</port>
			</output>
		</layer>
		<layer id="209" name="9050690509_const" type="Const" version="opset1">
			<data element_type="f16" offset="1191104" shape="576,1,1,3,3" size="10368"/>
			<output>
				<port id="1" precision="FP16">
					<dim>576</dim>
					<dim>1</dim>
					<dim>1</dim>
					<dim>3</dim>
					<dim>3</dim>
				</port>
			</output>
		</layer>
		<layer id="210" name="488" type="GroupConvolution" version="opset1">
			<data dilations="1,1" output_padding="0,0" pads_begin="1,1" pads_end="1,1" strides="2,2"/>
			<input>
				<port id="0">
					<dim>1</dim>
					<dim>576</dim>
					<dim>30</dim>
					<dim>54</dim>
				</port>
				<port id="1">
					<dim>576</dim>
					<dim>1</dim>
					<dim>1</dim>
					<dim>3</dim>
					<dim>3</dim>
				</port>
			</input>
			<output>
				<port id="2" precision="FP16">
					<dim>1</dim>
					<dim>576</dim>
					<dim>15</dim>
					<dim>27</dim>
				</port>
			</output>
		</layer>
		<layer id="211" name="data_add_422244222943617/EltwiseUnsqueeze44549_const" type="Const" version="opset1">
			<data element_type="f16" offset="1201472" shape="1,576,1,1" size="1152"/>
			<output>
				<port id="1" precision="FP16">
					<dim>1</dim>
					<dim>576</dim>
					<dim>1</dim>
					<dim>1</dim>
				</port>
			</output>
		</layer>
		<layer id="212" name="489/variance/Fused_Add_" type="Add" version="opset1">
			<input>
				<port id="0">
					<dim>1</dim>
					<dim>576</dim>
					<dim>15</dim>
					<dim>27</dim>
				</port>
				<port id="1">
					<dim>1</dim>
					<dim>576</dim>
					<dim>1</dim>
					<dim>1</dim>
				</port>
			</input>
			<output>
				<port id="2" precision="FP16">
					<dim>1</dim>
					<dim>576</dim>
					<dim>15</dim>
					<dim>27</dim>
				</port>
			</output>
		</layer>
		<layer id="213" name="490" type="Clamp" version="opset1">
			<data max="6.0" min="0.0"/>
			<input>
				<port id="0">
					<dim>1</dim>
					<dim>576</dim>
					<dim>15</dim>
					<dim>27</dim>
				</port>
			</input>
			<output>
				<port id="1" precision="FP16">
					<dim>1</dim>
					<dim>576</dim>
					<dim>15</dim>
					<dim>27</dim>
				</port>
			</output>
		</layer>
		<layer id="214" name="492/mean/Fused_Mul_4614746149_const" type="Const" version="opset1">
			<data element_type="f16" offset="1202624" shape="160,576,1,1" size="184320"/>
			<output>
				<port id="1" precision="FP16">
					<dim>160</dim>
					<dim>576</dim>
					<dim>1</dim>
					<dim>1</dim>
				</port>
			</output>
		</layer>
		<layer id="215" name="491" type="Convolution" version="opset1">
			<data dilations="1,1" output_padding="0,0" pads_begin="0,0" pads_end="0,0" strides="1,1"/>
			<input>
				<port id="0">
					<dim>1</dim>
					<dim>576</dim>
					<dim>15</dim>
					<dim>27</dim>
				</port>
				<port id="1">
					<dim>160</dim>
					<dim>576</dim>
					<dim>1</dim>
					<dim>1</dim>
				</port>
			</input>
			<output>
				<port id="2" precision="FP16">
					<dim>1</dim>
					<dim>160</dim>
					<dim>15</dim>
					<dim>27</dim>
				</port>
			</output>
		</layer>
		<layer id="216" name="data_add_422324223743619/EltwiseUnsqueeze44557_const" type="Const" version="opset1">
			<data element_type="f16" offset="1386944" shape="1,160,1,1" size="320"/>
			<output>
				<port id="1" precision="FP16">
					<dim>1</dim>
					<dim>160</dim>
					<dim>1</dim>
					<dim>1</dim>
				</port>
			</output>
		</layer>
		<layer id="217" name="492/variance/Fused_Add_" type="Add" version="opset1">
			<input>
				<port id="0">
					<dim>1</dim>
					<dim>160</dim>
					<dim>15</dim>
					<dim>27</dim>
				</port>
				<port id="1">
					<dim>1</dim>
					<dim>160</dim>
					<dim>1</dim>
					<dim>1</dim>
				</port>
			</input>
			<output>
				<port id="2" precision="FP16">
					<dim>1</dim>
					<dim>160</dim>
					<dim>15</dim>
					<dim>27</dim>
				</port>
			</output>
		</layer>
		<layer id="218" name="494/mean/Fused_Mul_4615146153_const" type="Const" version="opset1">
			<data element_type="f16" offset="1387264" shape="960,160,1,1" size="307200"/>
			<output>
				<port id="1" precision="FP16">
					<dim>960</dim>
					<dim>160</dim>
					<dim>1</dim>
					<dim>1</dim>
				</port>
			</output>
		</layer>
		<layer id="219" name="493" type="Convolution" version="opset1">
			<data dilations="1,1" output_padding="0,0" pads_begin="0,0" pads_end="0,0" strides="1,1"/>
			<input>
				<port id="0">
					<dim>1</dim>
					<dim>160</dim>
					<dim>15</dim>
					<dim>27</dim>
				</port>
				<port id="1">
					<dim>960</dim>
					<dim>160</dim>
					<dim>1</dim>
					<dim>1</dim>
				</port>
			</input>
			<output>
				<port id="2" precision="FP16">
					<dim>1</dim>
					<dim>960</dim>
					<dim>15</dim>
					<dim>27</dim>
				</port>
			</output>
		</layer>
		<layer id="220" name="data_add_422404224543621/EltwiseUnsqueeze44565_const" type="Const" version="opset1">
			<data element_type="f16" offset="1694464" shape="1,960,1,1" size="1920"/>
			<output>
				<port id="1" precision="FP16">
					<dim>1</dim>
					<dim>960</dim>
					<dim>1</dim>
					<dim>1</dim>
				</port>
			</output>
		</layer>
		<layer id="221" name="494/variance/Fused_Add_" type="Add" version="opset1">
			<input>
				<port id="0">
					<dim>1</dim>
					<dim>960</dim>
					<dim>15</dim>
					<dim>27</dim>
				</port>
				<port id="1">
					<dim>1</dim>
					<dim>960</dim>
					<dim>1</dim>
					<dim>1</dim>
				</port>
			</input>
			<output>
				<port id="2" precision="FP16">
					<dim>1</dim>
					<dim>960</dim>
					<dim>15</dim>
					<dim>27</dim>
				</port>
			</output>
		</layer>
		<layer id="222" name="495" type="Clamp" version="opset1">
			<data max="6.0" min="0.0"/>
			<input>
				<port id="0">
					<dim>1</dim>
					<dim>960</dim>
					<dim>15</dim>
					<dim>27</dim>
				</port>
			</input>
			<output>
				<port id="1" precision="FP16">
					<dim>1</dim>
					<dim>960</dim>
					<dim>15</dim>
					<dim>27</dim>
				</port>
			</output>
		</layer>
		<layer id="223" name="9048290485_const" type="Const" version="opset1">
			<data element_type="f16" offset="1696384" shape="960,1,1,3,3" size="17280"/>
			<output>
				<port id="1" precision="FP16">
					<dim>960</dim>
					<dim>1</dim>
					<dim>1</dim>
					<dim>3</dim>
					<dim>3</dim>
				</port>
			</output>
		</layer>
		<layer id="224" name="496" type="GroupConvolution" version="opset1">
			<data dilations="1,1" output_padding="0,0" pads_begin="1,1" pads_end="1,1" strides="1,1"/>
			<input>
				<port id="0">
					<dim>1</dim>
					<dim>960</dim>
					<dim>15</dim>
					<dim>27</dim>
				</port>
				<port id="1">
					<dim>960</dim>
					<dim>1</dim>
					<dim>1</dim>
					<dim>3</dim>
					<dim>3</dim>
				</port>
			</input>
			<output>
				<port id="2" precision="FP16">
					<dim>1</dim>
					<dim>960</dim>
					<dim>15</dim>
					<dim>27</dim>
				</port>
			</output>
		</layer>
		<layer id="225" name="data_add_422484225343623/EltwiseUnsqueeze44573_const" type="Const" version="opset1">
			<data element_type="f16" offset="1713664" shape="1,960,1,1" size="1920"/>
			<output>
				<port id="1" precision="FP16">
					<dim>1</dim>
					<dim>960</dim>
					<dim>1</dim>
					<dim>1</dim>
				</port>
			</output>
		</layer>
		<layer id="226" name="497/variance/Fused_Add_" type="Add" version="opset1">
			<input>
				<port id="0">
					<dim>1</dim>
					<dim>960</dim>
					<dim>15</dim>
					<dim>27</dim>
				</port>
				<port id="1">
					<dim>1</dim>
					<dim>960</dim>
					<dim>1</dim>
					<dim>1</dim>
				</port>
			</input>
			<output>
				<port id="2" precision="FP16">
					<dim>1</dim>
					<dim>960</dim>
					<dim>15</dim>
					<dim>27</dim>
				</port>
			</output>
		</layer>
		<layer id="227" name="498" type="Clamp" version="opset1">
			<data max="6.0" min="0.0"/>
			<input>
				<port id="0">
					<dim>1</dim>
					<dim>960</dim>
					<dim>15</dim>
					<dim>27</dim>
				</port>
			</input>
			<output>
				<port id="1" precision="FP16">
					<dim>1</dim>
					<dim>960</dim>
					<dim>15</dim>
					<dim>27</dim>
				</port>
			</output>
		</layer>
		<layer id="228" name="500/mean/Fused_Mul_4615946161_const" type="Const" version="opset1">
			<data element_type="f16" offset="1715584" shape="160,960,1,1" size="307200"/>
			<output>
				<port id="1" precision="FP16">
					<dim>160</dim>
					<dim>960</dim>
					<dim>1</dim>
					<dim>1</dim>
				</port>
			</output>
		</layer>
		<layer id="229" name="499" type="Convolution" version="opset1">
			<data dilations="1,1" output_padding="0,0" pads_begin="0,0" pads_end="0,0" strides="1,1"/>
			<input>
				<port id="0">
					<dim>1</dim>
					<dim>960</dim>
					<dim>15</dim>
					<dim>27</dim>
				</port>
				<port id="1">
					<dim>160</dim>
					<dim>960</dim>
					<dim>1</dim>
					<dim>1</dim>
				</port>
			</input>
			<output>
				<port id="2" precision="FP16">
					<dim>1</dim>
					<dim>160</dim>
					<dim>15</dim>
					<dim>27</dim>
				</port>
			</output>
		</layer>
		<layer id="230" name="data_add_422564226143625/EltwiseUnsqueeze44581_const" type="Const" version="opset1">
			<data element_type="f16" offset="2022784" shape="1,160,1,1" size="320"/>
			<output>
				<port id="1" precision="FP16">
					<dim>1</dim>
					<dim>160</dim>
					<dim>1</dim>
					<dim>1</dim>
				</port>
			</output>
		</layer>
		<layer id="231" name="500/variance/Fused_Add_" type="Add" version="opset1">
			<input>
				<port id="0">
					<dim>1</dim>
					<dim>160</dim>
					<dim>15</dim>
					<dim>27</dim>
				</port>
				<port id="1">
					<dim>1</dim>
					<dim>160</dim>
					<dim>1</dim>
					<dim>1</dim>
				</port>
			</input>
			<output>
				<port id="2" precision="FP16">
					<dim>1</dim>
					<dim>160</dim>
					<dim>15</dim>
					<dim>27</dim>
				</port>
			</output>
		</layer>
		<layer id="232" name="501" type="Add" version="opset1">
			<input>
				<port id="0">
					<dim>1</dim>
					<dim>160</dim>
					<dim>15</dim>
					<dim>27</dim>
				</port>
				<port id="1">
					<dim>1</dim>
					<dim>160</dim>
					<dim>15</dim>
					<dim>27</dim>
				</port>
			</input>
			<output>
				<port id="2" precision="FP16">
					<dim>1</dim>
					<dim>160</dim>
					<dim>15</dim>
					<dim>27</dim>
				</port>
			</output>
		</layer>
		<layer id="233" name="503/mean/Fused_Mul_4616346165_const" type="Const" version="opset1">
			<data element_type="f16" offset="2023104" shape="960,160,1,1" size="307200"/>
			<output>
				<port id="1" precision="FP16">
					<dim>960</dim>
					<dim>160</dim>
					<dim>1</dim>
					<dim>1</dim>
				</port>
			</output>
		</layer>
		<layer id="234" name="502" type="Convolution" version="opset1">
			<data dilations="1,1" output_padding="0,0" pads_begin="0,0" pads_end="0,0" strides="1,1"/>
			<input>
				<port id="0">
					<dim>1</dim>
					<dim>160</dim>
					<dim>15</dim>
					<dim>27</dim>
				</port>
				<port id="1">
					<dim>960</dim>
					<dim>160</dim>
					<dim>1</dim>
					<dim>1</dim>
				</port>
			</input>
			<output>
				<port id="2" precision="FP16">
					<dim>1</dim>
					<dim>960</dim>
					<dim>15</dim>
					<dim>27</dim>
				</port>
			</output>
		</layer>
		<layer id="235" name="data_add_422644226943627/EltwiseUnsqueeze44589_const" type="Const" version="opset1">
			<data element_type="f16" offset="2330304" shape="1,960,1,1" size="1920"/>
			<output>
				<port id="1" precision="FP16">
					<dim>1</dim>
					<dim>960</dim>
					<dim>1</dim>
					<dim>1</dim>
				</port>
			</output>
		</layer>
		<layer id="236" name="503/variance/Fused_Add_" type="Add" version="opset1">
			<input>
				<port id="0">
					<dim>1</dim>
					<dim>960</dim>
					<dim>15</dim>
					<dim>27</dim>
				</port>
				<port id="1">
					<dim>1</dim>
					<dim>960</dim>
					<dim>1</dim>
					<dim>1</dim>
				</port>
			</input>
			<output>
				<port id="2" precision="FP16">
					<dim>1</dim>
					<dim>960</dim>
					<dim>15</dim>
					<dim>27</dim>
				</port>
			</output>
		</layer>
		<layer id="237" name="504" type="Clamp" version="opset1">
			<data max="6.0" min="0.0"/>
			<input>
				<port id="0">
					<dim>1</dim>
					<dim>960</dim>
					<dim>15</dim>
					<dim>27</dim>
				</port>
			</input>
			<output>
				<port id="1" precision="FP16">
					<dim>1</dim>
					<dim>960</dim>
					<dim>15</dim>
					<dim>27</dim>
				</port>
			</output>
		</layer>
		<layer id="238" name="9047890481_const" type="Const" version="opset1">
			<data element_type="f16" offset="2332224" shape="960,1,1,3,3" size="17280"/>
			<output>
				<port id="1" precision="FP16">
					<dim>960</dim>
					<dim>1</dim>
					<dim>1</dim>
					<dim>3</dim>
					<dim>3</dim>
				</port>
			</output>
		</layer>
		<layer id="239" name="505" type="GroupConvolution" version="opset1">
			<data dilations="1,1" output_padding="0,0" pads_begin="1,1" pads_end="1,1" strides="1,1"/>
			<input>
				<port id="0">
					<dim>1</dim>
					<dim>960</dim>
					<dim>15</dim>
					<dim>27</dim>
				</port>
				<port id="1">
					<dim>960</dim>
					<dim>1</dim>
					<dim>1</dim>
					<dim>3</dim>
					<dim>3</dim>
				</port>
			</input>
			<output>
				<port id="2" precision="FP16">
					<dim>1</dim>
					<dim>960</dim>
					<dim>15</dim>
					<dim>27</dim>
				</port>
			</output>
		</layer>
		<layer id="240" name="data_add_422724227743629/EltwiseUnsqueeze44597_const" type="Const" version="opset1">
			<data element_type="f16" offset="2349504" shape="1,960,1,1" size="1920"/>
			<output>
				<port id="1" precision="FP16">
					<dim>1</dim>
					<dim>960</dim>
					<dim>1</dim>
					<dim>1</dim>
				</port>
			</output>
		</layer>
		<layer id="241" name="506/variance/Fused_Add_" type="Add" version="opset1">
			<input>
				<port id="0">
					<dim>1</dim>
					<dim>960</dim>
					<dim>15</dim>
					<dim>27</dim>
				</port>
				<port id="1">
					<dim>1</dim>
					<dim>960</dim>
					<dim>1</dim>
					<dim>1</dim>
				</port>
			</input>
			<output>
				<port id="2" precision="FP16">
					<dim>1</dim>
					<dim>960</dim>
					<dim>15</dim>
					<dim>27</dim>
				</port>
			</output>
		</layer>
		<layer id="242" name="507" type="Clamp" version="opset1">
			<data max="6.0" min="0.0"/>
			<input>
				<port id="0">
					<dim>1</dim>
					<dim>960</dim>
					<dim>15</dim>
					<dim>27</dim>
				</port>
			</input>
			<output>
				<port id="1" precision="FP16">
					<dim>1</dim>
					<dim>960</dim>
					<dim>15</dim>
					<dim>27</dim>
				</port>
			</output>
		</layer>
		<layer id="243" name="509/mean/Fused_Mul_4617146173_const" type="Const" version="opset1">
			<data element_type="f16" offset="2351424" shape="160,960,1,1" size="307200"/>
			<output>
				<port id="1" precision="FP16">
					<dim>160</dim>
					<dim>960</dim>
					<dim>1</dim>
					<dim>1</dim>
				</port>
			</output>
		</layer>
		<layer id="244" name="508" type="Convolution" version="opset1">
			<data dilations="1,1" output_padding="0,0" pads_begin="0,0" pads_end="0,0" strides="1,1"/>
			<input>
				<port id="0">
					<dim>1</dim>
					<dim>960</dim>
					<dim>15</dim>
					<dim>27</dim>
				</port>
				<port id="1">
					<dim>160</dim>
					<dim>960</dim>
					<dim>1</dim>
					<dim>1</dim>
				</port>
			</input>
			<output>
				<port id="2" precision="FP16">
					<dim>1</dim>
					<dim>160</dim>
					<dim>15</dim>
					<dim>27</dim>
				</port>
			</output>
		</layer>
		<layer id="245" name="data_add_422804228543631/EltwiseUnsqueeze44605_const" type="Const" version="opset1">
			<data element_type="f16" offset="2658624" shape="1,160,1,1" size="320"/>
			<output>
				<port id="1" precision="FP16">
					<dim>1</dim>
					<dim>160</dim>
					<dim>1</dim>
					<dim>1</dim>
				</port>
			</output>
		</layer>
		<layer id="246" name="509/variance/Fused_Add_" type="Add" version="opset1">
			<input>
				<port id="0">
					<dim>1</dim>
					<dim>160</dim>
					<dim>15</dim>
					<dim>27</dim>
				</port>
				<port id="1">
					<dim>1</dim>
					<dim>160</dim>
					<dim>1</dim>
					<dim>1</dim>
				</port>
			</input>
			<output>
				<port id="2" precision="FP16">
					<dim>1</dim>
					<dim>160</dim>
					<dim>15</dim>
					<dim>27</dim>
				</port>
			</output>
		</layer>
		<layer id="247" name="510" type="Add" version="opset1">
			<input>
				<port id="0">
					<dim>1</dim>
					<dim>160</dim>
					<dim>15</dim>
					<dim>27</dim>
				</port>
				<port id="1">
					<dim>1</dim>
					<dim>160</dim>
					<dim>15</dim>
					<dim>27</dim>
				</port>
			</input>
			<output>
				<port id="2" precision="FP16">
					<dim>1</dim>
					<dim>160</dim>
					<dim>15</dim>
					<dim>27</dim>
				</port>
			</output>
		</layer>
		<layer id="248" name="512/mean/Fused_Mul_4617546177_const" type="Const" version="opset1">
			<data element_type="f16" offset="2658944" shape="960,160,1,1" size="307200"/>
			<output>
				<port id="1" precision="FP16">
					<dim>960</dim>
					<dim>160</dim>
					<dim>1</dim>
					<dim>1</dim>
				</port>
			</output>
		</layer>
		<layer id="249" name="511" type="Convolution" version="opset1">
			<data dilations="1,1" output_padding="0,0" pads_begin="0,0" pads_end="0,0" strides="1,1"/>
			<input>
				<port id="0">
					<dim>1</dim>
					<dim>160</dim>
					<dim>15</dim>
					<dim>27</dim>
				</port>
				<port id="1">
					<dim>960</dim>
					<dim>160</dim>
					<dim>1</dim>
					<dim>1</dim>
				</port>
			</input>
			<output>
				<port id="2" precision="FP16">
					<dim>1</dim>
					<dim>960</dim>
					<dim>15</dim>
					<dim>27</dim>
				</port>
			</output>
		</layer>
		<layer id="250" name="data_add_422884229343633/EltwiseUnsqueeze44613_const" type="Const" version="opset1">
			<data element_type="f16" offset="2966144" shape="1,960,1,1" size="1920"/>
			<output>
				<port id="1" precision="FP16">
					<dim>1</dim>
					<dim>960</dim>
					<dim>1</dim>
					<dim>1</dim>
				</port>
			</output>
		</layer>
		<layer id="251" name="512/variance/Fused_Add_" type="Add" version="opset1">
			<input>
				<port id="0">
					<dim>1</dim>
					<dim>960</dim>
					<dim>15</dim>
					<dim>27</dim>
				</port>
				<port id="1">
					<dim>1</dim>
					<dim>960</dim>
					<dim>1</dim>
					<dim>1</dim>
				</port>
			</input>
			<output>
				<port id="2" precision="FP16">
					<dim>1</dim>
					<dim>960</dim>
					<dim>15</dim>
					<dim>27</dim>
				</port>
			</output>
		</layer>
		<layer id="252" name="513" type="Clamp" version="opset1">
			<data max="6.0" min="0.0"/>
			<input>
				<port id="0">
					<dim>1</dim>
					<dim>960</dim>
					<dim>15</dim>
					<dim>27</dim>
				</port>
			</input>
			<output>
				<port id="1" precision="FP16">
					<dim>1</dim>
					<dim>960</dim>
					<dim>15</dim>
					<dim>27</dim>
				</port>
			</output>
		</layer>
		<layer id="253" name="9051090513_const" type="Const" version="opset1">
			<data element_type="f16" offset="2968064" shape="960,1,1,3,3" size="17280"/>
			<output>
				<port id="1" precision="FP16">
					<dim>960</dim>
					<dim>1</dim>
					<dim>1</dim>
					<dim>3</dim>
					<dim>3</dim>
				</port>
			</output>
		</layer>
		<layer id="254" name="514" type="GroupConvolution" version="opset1">
			<data dilations="1,1" output_padding="0,0" pads_begin="1,1" pads_end="1,1" strides="1,1"/>
			<input>
				<port id="0">
					<dim>1</dim>
					<dim>960</dim>
					<dim>15</dim>
					<dim>27</dim>
				</port>
				<port id="1">
					<dim>960</dim>
					<dim>1</dim>
					<dim>1</dim>
					<dim>3</dim>
					<dim>3</dim>
				</port>
			</input>
			<output>
				<port id="2" precision="FP16">
					<dim>1</dim>
					<dim>960</dim>
					<dim>15</dim>
					<dim>27</dim>
				</port>
			</output>
		</layer>
		<layer id="255" name="data_add_422964230143635/EltwiseUnsqueeze44621_const" type="Const" version="opset1">
			<data element_type="f16" offset="2985344" shape="1,960,1,1" size="1920"/>
			<output>
				<port id="1" precision="FP16">
					<dim>1</dim>
					<dim>960</dim>
					<dim>1</dim>
					<dim>1</dim>
				</port>
			</output>
		</layer>
		<layer id="256" name="515/variance/Fused_Add_" type="Add" version="opset1">
			<input>
				<port id="0">
					<dim>1</dim>
					<dim>960</dim>
					<dim>15</dim>
					<dim>27</dim>
				</port>
				<port id="1">
					<dim>1</dim>
					<dim>960</dim>
					<dim>1</dim>
					<dim>1</dim>
				</port>
			</input>
			<output>
				<port id="2" precision="FP16">
					<dim>1</dim>
					<dim>960</dim>
					<dim>15</dim>
					<dim>27</dim>
				</port>
			</output>
		</layer>
		<layer id="257" name="516" type="Clamp" version="opset1">
			<data max="6.0" min="0.0"/>
			<input>
				<port id="0">
					<dim>1</dim>
					<dim>960</dim>
					<dim>15</dim>
					<dim>27</dim>
				</port>
			</input>
			<output>
				<port id="1" precision="FP16">
					<dim>1</dim>
					<dim>960</dim>
					<dim>15</dim>
					<dim>27</dim>
				</port>
			</output>
		</layer>
		<layer id="258" name="518/mean/Fused_Mul_4618346185_const" type="Const" version="opset1">
			<data element_type="f16" offset="2987264" shape="320,960,1,1" size="614400"/>
			<output>
				<port id="1" precision="FP16">
					<dim>320</dim>
					<dim>960</dim>
					<dim>1</dim>
					<dim>1</dim>
				</port>
			</output>
		</layer>
		<layer id="259" name="517" type="Convolution" version="opset1">
			<data dilations="1,1" output_padding="0,0" pads_begin="0,0" pads_end="0,0" strides="1,1"/>
			<input>
				<port id="0">
					<dim>1</dim>
					<dim>960</dim>
					<dim>15</dim>
					<dim>27</dim>
				</port>
				<port id="1">
					<dim>320</dim>
					<dim>960</dim>
					<dim>1</dim>
					<dim>1</dim>
				</port>
			</input>
			<output>
				<port id="2" precision="FP16">
					<dim>1</dim>
					<dim>320</dim>
					<dim>15</dim>
					<dim>27</dim>
				</port>
			</output>
		</layer>
		<layer id="260" name="data_add_423044230943637/EltwiseUnsqueeze44629_const" type="Const" version="opset1">
			<data element_type="f16" offset="3601664" shape="1,320,1,1" size="640"/>
			<output>
				<port id="1" precision="FP16">
					<dim>1</dim>
					<dim>320</dim>
					<dim>1</dim>
					<dim>1</dim>
				</port>
			</output>
		</layer>
		<layer id="261" name="518/variance/Fused_Add_" type="Add" version="opset1">
			<input>
				<port id="0">
					<dim>1</dim>
					<dim>320</dim>
					<dim>15</dim>
					<dim>27</dim>
				</port>
				<port id="1">
					<dim>1</dim>
					<dim>320</dim>
					<dim>1</dim>
					<dim>1</dim>
				</port>
			</input>
			<output>
				<port id="2" precision="FP16">
					<dim>1</dim>
					<dim>320</dim>
					<dim>15</dim>
					<dim>27</dim>
				</port>
			</output>
		</layer>
		<layer id="262" name="neck.lateral_convs.2.conv.weight/Output_0/Data__const" type="Const" version="opset1">
			<data element_type="f16" offset="3602304" shape="32,320,1,1" size="20480"/>
			<output>
				<port id="1" precision="FP16">
					<dim>32</dim>
					<dim>320</dim>
					<dim>1</dim>
					<dim>1</dim>
				</port>
			</output>
		</layer>
		<layer id="263" name="521/WithoutBiases" type="Convolution" version="opset1">
			<data dilations="1,1" output_padding="0,0" pads_begin="0,0" pads_end="0,0" strides="1,1"/>
			<input>
				<port id="0">
					<dim>1</dim>
					<dim>320</dim>
					<dim>15</dim>
					<dim>27</dim>
				</port>
				<port id="1">
					<dim>32</dim>
					<dim>320</dim>
					<dim>1</dim>
					<dim>1</dim>
				</port>
			</input>
			<output>
				<port id="2" precision="FP16">
					<dim>1</dim>
					<dim>32</dim>
					<dim>15</dim>
					<dim>27</dim>
				</port>
			</output>
		</layer>
		<layer id="264" name="521/Dims2584843442/EltwiseUnsqueeze44145_const" type="Const" version="opset1">
			<data element_type="f16" offset="3622784" shape="1,32,1,1" size="64"/>
			<output>
				<port id="1" precision="FP16">
					<dim>1</dim>
					<dim>32</dim>
					<dim>1</dim>
					<dim>1</dim>
				</port>
			</output>
		</layer>
		<layer id="265" name="521" type="Add" version="opset1">
			<input>
				<port id="0">
					<dim>1</dim>
					<dim>32</dim>
					<dim>15</dim>
					<dim>27</dim>
				</port>
				<port id="1">
					<dim>1</dim>
					<dim>32</dim>
					<dim>1</dim>
					<dim>1</dim>
				</port>
			</input>
			<output>
				<port id="2" precision="FP16">
					<dim>1</dim>
					<dim>32</dim>
					<dim>15</dim>
					<dim>27</dim>
				</port>
			</output>
		</layer>
		<layer id="266" name="541/0_port" type="ShapeOf" version="opset3">
			<data output_type="i64"/>
			<input>
				<port id="0">
					<dim>1</dim>
					<dim>32</dim>
					<dim>15</dim>
					<dim>27</dim>
				</port>
			</input>
			<output>
				<port id="1" precision="I64">
					<dim>4</dim>
				</port>
			</output>
		</layer>
		<layer id="267" name="541/ss_0_port/Cast_193347_const" type="Const" version="opset1">
			<data element_type="i64" offset="3622848" shape="1" size="8"/>
			<output>
				<port id="1" precision="I64">
					<dim>1</dim>
				</port>
			</output>
		</layer>
		<layer id="268" name="541/ss_0_port/Cast_293349_const" type="Const" version="opset1">
			<data element_type="i64" offset="3622856" shape="1" size="8"/>
			<output>
				<port id="1" precision="I64">
					<dim>1</dim>
				</port>
			</output>
		</layer>
		<layer id="269" name="541/ss_0_port/Cast_393351_const" type="Const" version="opset1">
			<data element_type="i64" offset="3622864" shape="1" size="8"/>
			<output>
				<port id="1" precision="I64">
					<dim>1</dim>
				</port>
			</output>
		</layer>
		<layer id="270" name="541/ss_0_port" type="StridedSlice" version="opset1">
			<data begin_mask="0" ellipsis_mask="0" end_mask="0" new_axis_mask="0" shrink_axis_mask="0"/>
			<input>
				<port id="0">
					<dim>4</dim>
				</port>
				<port id="1">
					<dim>1</dim>
				</port>
				<port id="2">
					<dim>1</dim>
				</port>
				<port id="3">
					<dim>1</dim>
				</port>
			</input>
			<output>
				<port id="4" precision="I64">
					<dim>2</dim>
				</port>
			</output>
		</layer>
		<layer id="271" name="21574" type="Convert" version="opset1">
			<data destination_type="f32"/>
			<input>
				<port id="0">
					<dim>2</dim>
				</port>
			</input>
			<output>
				<port id="1" precision="FP32">
					<dim>2</dim>
				</port>
			</output>
		</layer>
		<layer id="272" name="541/factor_mul_/value21568_const" type="Const" version="opset1">
			<data element_type="f32" offset="3622872" shape="2" size="8"/>
			<output>
				<port id="1" precision="FP32">
					<dim>2</dim>
				</port>
			</output>
		</layer>
		<layer id="273" name="541/factor_mul_" type="Multiply" version="opset1">
			<input>
				<port id="0">
					<dim>2</dim>
				</port>
				<port id="1">
					<dim>2</dim>
				</port>
			</input>
			<output>
				<port id="2" precision="FP32">
					<dim>2</dim>
				</port>
			</output>
		</layer>
		<layer id="274" name="21575" type="Convert" version="opset1">
			<data destination_type="i64"/>
			<input>
				<port id="0">
					<dim>2</dim>
				</port>
			</input>
			<output>
				<port id="1" precision="I64">
					<dim>2</dim>
				</port>
			</output>
		</layer>
		<layer id="275" name="541/Interpolate" type="Interpolate" version="opset1">
			<data align_corners="0" antialias="0" axes="2,3" mode="nearest" pads_begin="0" pads_end="0"/>
			<input>
				<port id="0">
					<dim>1</dim>
					<dim>32</dim>
					<dim>15</dim>
					<dim>27</dim>
				</port>
				<port id="1">
					<dim>2</dim>
				</port>
			</input>
			<output>
				<port id="2" precision="FP16">
					<dim>1</dim>
					<dim>32</dim>
					<dim>30</dim>
					<dim>54</dim>
				</port>
			</output>
		</layer>
		<layer id="276" name="542" type="Add" version="opset1">
			<input>
				<port id="0">
					<dim>1</dim>
					<dim>32</dim>
					<dim>30</dim>
					<dim>54</dim>
				</port>
				<port id="1">
					<dim>1</dim>
					<dim>32</dim>
					<dim>30</dim>
					<dim>54</dim>
				</port>
			</input>
			<output>
				<port id="2" precision="FP16">
					<dim>1</dim>
					<dim>32</dim>
					<dim>30</dim>
					<dim>54</dim>
				</port>
			</output>
		</layer>
		<layer id="277" name="562/0_port" type="ShapeOf" version="opset3">
			<data output_type="i64"/>
			<input>
				<port id="0">
					<dim>1</dim>
					<dim>32</dim>
					<dim>30</dim>
					<dim>54</dim>
				</port>
			</input>
			<output>
				<port id="1" precision="I64">
					<dim>4</dim>
				</port>
			</output>
		</layer>
		<layer id="278" name="562/ss_0_port/Cast_193765_const" type="Const" version="opset1">
			<data element_type="i64" offset="3622848" shape="1" size="8"/>
			<output>
				<port id="1" precision="I64">
					<dim>1</dim>
				</port>
			</output>
		</layer>
		<layer id="279" name="562/ss_0_port/Cast_293767_const" type="Const" version="opset1">
			<data element_type="i64" offset="3622856" shape="1" size="8"/>
			<output>
				<port id="1" precision="I64">
					<dim>1</dim>
				</port>
			</output>
		</layer>
		<layer id="280" name="562/ss_0_port/Cast_393769_const" type="Const" version="opset1">
			<data element_type="i64" offset="3622864" shape="1" size="8"/>
			<output>
				<port id="1" precision="I64">
					<dim>1</dim>
				</port>
			</output>
		</layer>
		<layer id="281" name="562/ss_0_port" type="StridedSlice" version="opset1">
			<data begin_mask="0" ellipsis_mask="0" end_mask="0" new_axis_mask="0" shrink_axis_mask="0"/>
			<input>
				<port id="0">
					<dim>4</dim>
				</port>
				<port id="1">
					<dim>1</dim>
				</port>
				<port id="2">
					<dim>1</dim>
				</port>
				<port id="3">
					<dim>1</dim>
				</port>
			</input>
			<output>
				<port id="4" precision="I64">
					<dim>2</dim>
				</port>
			</output>
		</layer>
		<layer id="282" name="21594" type="Convert" version="opset1">
			<data destination_type="f32"/>
			<input>
				<port id="0">
					<dim>2</dim>
				</port>
			</input>
			<output>
				<port id="1" precision="FP32">
					<dim>2</dim>
				</port>
			</output>
		</layer>
		<layer id="283" name="562/factor_mul_/value21588_const" type="Const" version="opset1">
			<data element_type="f32" offset="3622872" shape="2" size="8"/>
			<output>
				<port id="1" precision="FP32">
					<dim>2</dim>
				</port>
			</output>
		</layer>
		<layer id="284" name="562/factor_mul_" type="Multiply" version="opset1">
			<input>
				<port id="0">
					<dim>2</dim>
				</port>
				<port id="1">
					<dim>2</dim>
				</port>
			</input>
			<output>
				<port id="2" precision="FP32">
					<dim>2</dim>
				</port>
			</output>
		</layer>
		<layer id="285" name="21595" type="Convert" version="opset1">
			<data destination_type="i64"/>
			<input>
				<port id="0">
					<dim>2</dim>
				</port>
			</input>
			<output>
				<port id="1" precision="I64">
					<dim>2</dim>
				</port>
			</output>
		</layer>
		<layer id="286" name="562/Interpolate" type="Interpolate" version="opset1">
			<data align_corners="0" antialias="0" axes="2,3" mode="nearest" pads_begin="0" pads_end="0"/>
			<input>
				<port id="0">
					<dim>1</dim>
					<dim>32</dim>
					<dim>30</dim>
					<dim>54</dim>
				</port>
				<port id="1">
					<dim>2</dim>
				</port>
			</input>
			<output>
				<port id="2" precision="FP16">
					<dim>1</dim>
					<dim>32</dim>
					<dim>60</dim>
					<dim>108</dim>
				</port>
			</output>
		</layer>
		<layer id="287" name="563" type="Add" version="opset1">
			<input>
				<port id="0">
					<dim>1</dim>
					<dim>32</dim>
					<dim>60</dim>
					<dim>108</dim>
				</port>
				<port id="1">
					<dim>1</dim>
					<dim>32</dim>
					<dim>60</dim>
					<dim>108</dim>
				</port>
			</input>
			<output>
				<port id="2" precision="FP16">
					<dim>1</dim>
					<dim>32</dim>
					<dim>60</dim>
					<dim>108</dim>
				</port>
			</output>
		</layer>
		<layer id="288" name="neck.fpn_convs.0.conv.weight/Output_0/Data__const" type="Const" version="opset1">
			<data element_type="f16" offset="3622880" shape="32,32,3,3" size="18432"/>
			<output>
				<port id="1" precision="FP16">
					<dim>32</dim>
					<dim>32</dim>
					<dim>3</dim>
					<dim>3</dim>
				</port>
			</output>
		</layer>
		<layer id="289" name="564/WithoutBiases" type="Convolution" version="opset1">
			<data dilations="1,1" output_padding="0,0" pads_begin="1,1" pads_end="1,1" strides="1,1"/>
			<input>
				<port id="0">
					<dim>1</dim>
					<dim>32</dim>
					<dim>60</dim>
					<dim>108</dim>
				</port>
				<port id="1">
					<dim>32</dim>
					<dim>32</dim>
					<dim>3</dim>
					<dim>3</dim>
				</port>
			</input>
			<output>
				<port id="2" precision="FP16">
					<dim>1</dim>
					<dim>32</dim>
					<dim>60</dim>
					<dim>108</dim>
				</port>
			</output>
		</layer>
		<layer id="290" name="564/Dims2587843447/EltwiseUnsqueeze44165_const" type="Const" version="opset1">
			<data element_type="f16" offset="3641312" shape="1,32,1,1" size="64"/>
			<output>
				<port id="1" precision="FP16">
					<dim>1</dim>
					<dim>32</dim>
					<dim>1</dim>
					<dim>1</dim>
				</port>
			</output>
		</layer>
		<layer id="291" name="564" type="Add" version="opset1">
			<input>
				<port id="0">
					<dim>1</dim>
					<dim>32</dim>
					<dim>60</dim>
					<dim>108</dim>
				</port>
				<port id="1">
					<dim>1</dim>
					<dim>32</dim>
					<dim>1</dim>
					<dim>1</dim>
				</port>
			</input>
			<output>
				<port id="2" precision="FP16">
					<dim>1</dim>
					<dim>32</dim>
					<dim>60</dim>
					<dim>108</dim>
				</port>
			</output>
		</layer>
		<layer id="292" name="Copy_bbox_head.cls_convs.0.conv.weight/Output_0/Data__const" type="Const" version="opset1">
			<data element_type="f16" offset="3641376" shape="32,32,3,3" size="18432"/>
			<output>
				<port id="1" precision="FP16">
					<dim>32</dim>
					<dim>32</dim>
					<dim>3</dim>
					<dim>3</dim>
				</port>
			</output>
		</layer>
		<layer id="293" name="569" type="Convolution" version="opset1">
			<data dilations="1,1" output_padding="0,0" pads_begin="1,1" pads_end="1,1" strides="1,1"/>
			<input>
				<port id="0">
					<dim>1</dim>
					<dim>32</dim>
					<dim>60</dim>
					<dim>108</dim>
				</port>
				<port id="1">
					<dim>32</dim>
					<dim>32</dim>
					<dim>3</dim>
					<dim>3</dim>
				</port>
			</input>
			<output>
				<port id="2" precision="FP16">
					<dim>1</dim>
					<dim>32</dim>
					<dim>60</dim>
					<dim>108</dim>
				</port>
			</output>
		</layer>
		<layer id="294" name="570/Ins_Norm/MVN_" type="MVN" version="opset2">
			<data across_channels="0" eps="9.999999747378752e-06" normalize_variance="1"/>
			<input>
				<port id="0">
					<dim>1</dim>
					<dim>32</dim>
					<dim>60</dim>
					<dim>108</dim>
				</port>
			</input>
			<output>
				<port id="1" precision="FP16">
					<dim>1</dim>
					<dim>32</dim>
					<dim>60</dim>
					<dim>108</dim>
				</port>
			</output>
		</layer>
		<layer id="295" name="bbox_head.cls_convs.0.gn.weight43275/EltwiseUnsqueeze43953_const" type="Const" version="opset1">
			<data element_type="f16" offset="3659808" shape="1,32,1,1" size="64"/>
			<output>
				<port id="1" precision="FP16">
					<dim>1</dim>
					<dim>32</dim>
					<dim>1</dim>
					<dim>1</dim>
				</port>
			</output>
		</layer>
		<layer id="296" name="570/Ins_Norm/mul_" type="Multiply" version="opset1">
			<input>
				<port id="0">
					<dim>1</dim>
					<dim>32</dim>
					<dim>60</dim>
					<dim>108</dim>
				</port>
				<port id="1">
					<dim>1</dim>
					<dim>32</dim>
					<dim>1</dim>
					<dim>1</dim>
				</port>
			</input>
			<output>
				<port id="2" precision="FP16">
					<dim>1</dim>
					<dim>32</dim>
					<dim>60</dim>
					<dim>108</dim>
				</port>
			</output>
		</layer>
		<layer id="297" name="bbox_head.cls_convs.0.gn.bias43270/EltwiseUnsqueeze43957_const" type="Const" version="opset1">
			<data element_type="f16" offset="3659872" shape="1,32,1,1" size="64"/>
			<output>
				<port id="1" precision="FP16">
					<dim>1</dim>
					<dim>32</dim>
					<dim>1</dim>
					<dim>1</dim>
				</port>
			</output>
		</layer>
		<layer id="298" name="570/Ins_Norm/add_" type="Add" version="opset1">
			<input>
				<port id="0">
					<dim>1</dim>
					<dim>32</dim>
					<dim>60</dim>
					<dim>108</dim>
				</port>
				<port id="1">
					<dim>1</dim>
					<dim>32</dim>
					<dim>1</dim>
					<dim>1</dim>
				</port>
			</input>
			<output>
				<port id="2" precision="FP16">
					<dim>1</dim>
					<dim>32</dim>
					<dim>60</dim>
					<dim>108</dim>
				</port>
			</output>
		</layer>
		<layer id="299" name="571" type="ReLU" version="opset1">
			<input>
				<port id="0">
					<dim>1</dim>
					<dim>32</dim>
					<dim>60</dim>
					<dim>108</dim>
				</port>
			</input>
			<output>
				<port id="1" precision="FP16">
					<dim>1</dim>
					<dim>32</dim>
					<dim>60</dim>
					<dim>108</dim>
				</port>
			</output>
		</layer>
		<layer id="300" name="Copy_bbox_head.cls_convs.1.conv.weight/Output_0/Data__const" type="Const" version="opset1">
			<data element_type="f16" offset="3659936" shape="32,32,3,3" size="18432"/>
			<output>
				<port id="1" precision="FP16">
					<dim>32</dim>
					<dim>32</dim>
					<dim>3</dim>
					<dim>3</dim>
				</port>
			</output>
		</layer>
		<layer id="301" name="572" type="Convolution" version="opset1">
			<data dilations="1,1" output_padding="0,0" pads_begin="1,1" pads_end="1,1" strides="1,1"/>
			<input>
				<port id="0">
					<dim>1</dim>
					<dim>32</dim>
					<dim>60</dim>
					<dim>108</dim>
				</port>
				<port id="1">
					<dim>32</dim>
					<dim>32</dim>
					<dim>3</dim>
					<dim>3</dim>
				</port>
			</input>
			<output>
				<port id="2" precision="FP16">
					<dim>1</dim>
					<dim>32</dim>
					<dim>60</dim>
					<dim>108</dim>
				</port>
			</output>
		</layer>
		<layer id="302" name="573/Ins_Norm/MVN_" type="MVN" version="opset2">
			<data across_channels="0" eps="9.999999747378752e-06" normalize_variance="1"/>
			<input>
				<port id="0">
					<dim>1</dim>
					<dim>32</dim>
					<dim>60</dim>
					<dim>108</dim>
				</port>
			</input>
			<output>
				<port id="1" precision="FP16">
					<dim>1</dim>
					<dim>32</dim>
					<dim>60</dim>
					<dim>108</dim>
				</port>
			</output>
		</layer>
		<layer id="303" name="bbox_head.cls_convs.1.gn.weight43289/EltwiseUnsqueeze43889_const" type="Const" version="opset1">
			<data element_type="f16" offset="3678368" shape="1,32,1,1" size="64"/>
			<output>
				<port id="1" precision="FP16">
					<dim>1</dim>
					<dim>32</dim>
					<dim>1</dim>
					<dim>1</dim>
				</port>
			</output>
		</layer>
		<layer id="304" name="573/Ins_Norm/mul_" type="Multiply" version="opset1">
			<input>
				<port id="0">
					<dim>1</dim>
					<dim>32</dim>
					<dim>60</dim>
					<dim>108</dim>
				</port>
				<port id="1">
					<dim>1</dim>
					<dim>32</dim>
					<dim>1</dim>
					<dim>1</dim>
				</port>
			</input>
			<output>
				<port id="2" precision="FP16">
					<dim>1</dim>
					<dim>32</dim>
					<dim>60</dim>
					<dim>108</dim>
				</port>
			</output>
		</layer>
		<layer id="305" name="bbox_head.cls_convs.1.gn.bias43284/EltwiseUnsqueeze43893_const" type="Const" version="opset1">
			<data element_type="f16" offset="3678432" shape="1,32,1,1" size="64"/>
			<output>
				<port id="1" precision="FP16">
					<dim>1</dim>
					<dim>32</dim>
					<dim>1</dim>
					<dim>1</dim>
				</port>
			</output>
		</layer>
		<layer id="306" name="573/Ins_Norm/add_" type="Add" version="opset1">
			<input>
				<port id="0">
					<dim>1</dim>
					<dim>32</dim>
					<dim>60</dim>
					<dim>108</dim>
				</port>
				<port id="1">
					<dim>1</dim>
					<dim>32</dim>
					<dim>1</dim>
					<dim>1</dim>
				</port>
			</input>
			<output>
				<port id="2" precision="FP16">
					<dim>1</dim>
					<dim>32</dim>
					<dim>60</dim>
					<dim>108</dim>
				</port>
			</output>
		</layer>
		<layer id="307" name="574" type="ReLU" version="opset1">
			<input>
				<port id="0">
					<dim>1</dim>
					<dim>32</dim>
					<dim>60</dim>
					<dim>108</dim>
				</port>
			</input>
			<output>
				<port id="1" precision="FP16">
					<dim>1</dim>
					<dim>32</dim>
					<dim>60</dim>
					<dim>108</dim>
				</port>
			</output>
		</layer>
		<layer id="308" name="Copy_bbox_head.cls_convs.2.conv.weight/Output_0/Data__const" type="Const" version="opset1">
			<data element_type="f16" offset="3678496" shape="32,32,3,3" size="18432"/>
			<output>
				<port id="1" precision="FP16">
					<dim>32</dim>
					<dim>32</dim>
					<dim>3</dim>
					<dim>3</dim>
				</port>
			</output>
		</layer>
		<layer id="309" name="575" type="Convolution" version="opset1">
			<data dilations="1,1" output_padding="0,0" pads_begin="1,1" pads_end="1,1" strides="1,1"/>
			<input>
				<port id="0">
					<dim>1</dim>
					<dim>32</dim>
					<dim>60</dim>
					<dim>108</dim>
				</port>
				<port id="1">
					<dim>32</dim>
					<dim>32</dim>
					<dim>3</dim>
					<dim>3</dim>
				</port>
			</input>
			<output>
				<port id="2" precision="FP16">
					<dim>1</dim>
					<dim>32</dim>
					<dim>60</dim>
					<dim>108</dim>
				</port>
			</output>
		</layer>
		<layer id="310" name="576/Ins_Norm/MVN_" type="MVN" version="opset2">
			<data across_channels="0" eps="9.999999747378752e-06" normalize_variance="1"/>
			<input>
				<port id="0">
					<dim>1</dim>
					<dim>32</dim>
					<dim>60</dim>
					<dim>108</dim>
				</port>
			</input>
			<output>
				<port id="1" precision="FP16">
					<dim>1</dim>
					<dim>32</dim>
					<dim>60</dim>
					<dim>108</dim>
				</port>
			</output>
		</layer>
		<layer id="311" name="bbox_head.cls_convs.2.gn.weight43306/EltwiseUnsqueeze43985_const" type="Const" version="opset1">
			<data element_type="f16" offset="3696928" shape="1,32,1,1" size="64"/>
			<output>
				<port id="1" precision="FP16">
					<dim>1</dim>
					<dim>32</dim>
					<dim>1</dim>
					<dim>1</dim>
				</port>
			</output>
		</layer>
		<layer id="312" name="576/Ins_Norm/mul_" type="Multiply" version="opset1">
			<input>
				<port id="0">
					<dim>1</dim>
					<dim>32</dim>
					<dim>60</dim>
					<dim>108</dim>
				</port>
				<port id="1">
					<dim>1</dim>
					<dim>32</dim>
					<dim>1</dim>
					<dim>1</dim>
				</port>
			</input>
			<output>
				<port id="2" precision="FP16">
					<dim>1</dim>
					<dim>32</dim>
					<dim>60</dim>
					<dim>108</dim>
				</port>
			</output>
		</layer>
		<layer id="313" name="bbox_head.cls_convs.2.gn.bias43301/EltwiseUnsqueeze43989_const" type="Const" version="opset1">
			<data element_type="f16" offset="3696992" shape="1,32,1,1" size="64"/>
			<output>
				<port id="1" precision="FP16">
					<dim>1</dim>
					<dim>32</dim>
					<dim>1</dim>
					<dim>1</dim>
				</port>
			</output>
		</layer>
		<layer id="314" name="576/Ins_Norm/add_" type="Add" version="opset1">
			<input>
				<port id="0">
					<dim>1</dim>
					<dim>32</dim>
					<dim>60</dim>
					<dim>108</dim>
				</port>
				<port id="1">
					<dim>1</dim>
					<dim>32</dim>
					<dim>1</dim>
					<dim>1</dim>
				</port>
			</input>
			<output>
				<port id="2" precision="FP16">
					<dim>1</dim>
					<dim>32</dim>
					<dim>60</dim>
					<dim>108</dim>
				</port>
			</output>
		</layer>
		<layer id="315" name="577" type="ReLU" version="opset1">
			<input>
				<port id="0">
					<dim>1</dim>
					<dim>32</dim>
					<dim>60</dim>
					<dim>108</dim>
				</port>
			</input>
			<output>
				<port id="1" precision="FP16">
					<dim>1</dim>
					<dim>32</dim>
					<dim>60</dim>
					<dim>108</dim>
				</port>
			</output>
		</layer>
		<layer id="316" name="Copy_bbox_head.cls_convs.3.conv.weight/Output_0/Data__const" type="Const" version="opset1">
			<data element_type="f16" offset="3697056" shape="32,32,3,3" size="18432"/>
			<output>
				<port id="1" precision="FP16">
					<dim>32</dim>
					<dim>32</dim>
					<dim>3</dim>
					<dim>3</dim>
				</port>
			</output>
		</layer>
		<layer id="317" name="578" type="Convolution" version="opset1">
			<data dilations="1,1" output_padding="0,0" pads_begin="1,1" pads_end="1,1" strides="1,1"/>
			<input>
				<port id="0">
					<dim>1</dim>
					<dim>32</dim>
					<dim>60</dim>
					<dim>108</dim>
				</port>
				<port id="1">
					<dim>32</dim>
					<dim>32</dim>
					<dim>3</dim>
					<dim>3</dim>
				</port>
			</input>
			<output>
				<port id="2" precision="FP16">
					<dim>1</dim>
					<dim>32</dim>
					<dim>60</dim>
					<dim>108</dim>
				</port>
			</output>
		</layer>
		<layer id="318" name="579/Ins_Norm/MVN_" type="MVN" version="opset2">
			<data across_channels="0" eps="9.999999747378752e-06" normalize_variance="1"/>
			<input>
				<port id="0">
					<dim>1</dim>
					<dim>32</dim>
					<dim>60</dim>
					<dim>108</dim>
				</port>
			</input>
			<output>
				<port id="1" precision="FP16">
					<dim>1</dim>
					<dim>32</dim>
					<dim>60</dim>
					<dim>108</dim>
				</port>
			</output>
		</layer>
		<layer id="319" name="bbox_head.cls_convs.3.gn.weight43321/EltwiseUnsqueeze44041_const" type="Const" version="opset1">
			<data element_type="f16" offset="3715488" shape="1,32,1,1" size="64"/>
			<output>
				<port id="1" precision="FP16">
					<dim>1</dim>
					<dim>32</dim>
					<dim>1</dim>
					<dim>1</dim>
				</port>
			</output>
		</layer>
		<layer id="320" name="579/Ins_Norm/mul_" type="Multiply" version="opset1">
			<input>
				<port id="0">
					<dim>1</dim>
					<dim>32</dim>
					<dim>60</dim>
					<dim>108</dim>
				</port>
				<port id="1">
					<dim>1</dim>
					<dim>32</dim>
					<dim>1</dim>
					<dim>1</dim>
				</port>
			</input>
			<output>
				<port id="2" precision="FP16">
					<dim>1</dim>
					<dim>32</dim>
					<dim>60</dim>
					<dim>108</dim>
				</port>
			</output>
		</layer>
		<layer id="321" name="bbox_head.cls_convs.3.gn.bias43316/EltwiseUnsqueeze44045_const" type="Const" version="opset1">
			<data element_type="f16" offset="3715552" shape="1,32,1,1" size="64"/>
			<output>
				<port id="1" precision="FP16">
					<dim>1</dim>
					<dim>32</dim>
					<dim>1</dim>
					<dim>1</dim>
				</port>
			</output>
		</layer>
		<layer id="322" name="579/Ins_Norm/add_" type="Add" version="opset1">
			<input>
				<port id="0">
					<dim>1</dim>
					<dim>32</dim>
					<dim>60</dim>
					<dim>108</dim>
				</port>
				<port id="1">
					<dim>1</dim>
					<dim>32</dim>
					<dim>1</dim>
					<dim>1</dim>
				</port>
			</input>
			<output>
				<port id="2" precision="FP16">
					<dim>1</dim>
					<dim>32</dim>
					<dim>60</dim>
					<dim>108</dim>
				</port>
			</output>
		</layer>
		<layer id="323" name="580" type="ReLU" version="opset1">
			<input>
				<port id="0">
					<dim>1</dim>
					<dim>32</dim>
					<dim>60</dim>
					<dim>108</dim>
				</port>
			</input>
			<output>
				<port id="1" precision="FP16">
					<dim>1</dim>
					<dim>32</dim>
					<dim>60</dim>
					<dim>108</dim>
				</port>
			</output>
		</layer>
		<layer id="324" name="Copy_bbox_head.atss_cls.weight/Output_0/Data__const" type="Const" version="opset1">
			<data element_type="f16" offset="3715616" shape="3,32,3,3" size="1728"/>
			<output>
				<port id="1" precision="FP16">
					<dim>3</dim>
					<dim>32</dim>
					<dim>3</dim>
					<dim>3</dim>
				</port>
			</output>
		</layer>
		<layer id="325" name="593/WithoutBiases" type="Convolution" version="opset1">
			<data dilations="1,1" output_padding="0,0" pads_begin="1,1" pads_end="1,1" strides="1,1"/>
			<input>
				<port id="0">
					<dim>1</dim>
					<dim>32</dim>
					<dim>60</dim>
					<dim>108</dim>
				</port>
				<port id="1">
					<dim>3</dim>
					<dim>32</dim>
					<dim>3</dim>
					<dim>3</dim>
				</port>
			</input>
			<output>
				<port id="2" precision="FP16">
					<dim>1</dim>
					<dim>3</dim>
					<dim>60</dim>
					<dim>108</dim>
				</port>
			</output>
		</layer>
		<layer id="326" name="593/Dims2578243433/EltwiseUnsqueeze44109_const" type="Const" version="opset1">
			<data element_type="f16" offset="3717344" shape="1,3,1,1" size="6"/>
			<output>
				<port id="1" precision="FP16">
					<dim>1</dim>
					<dim>3</dim>
					<dim>1</dim>
					<dim>1</dim>
				</port>
			</output>
		</layer>
		<layer id="327" name="593" type="Add" version="opset1">
			<input>
				<port id="0">
					<dim>1</dim>
					<dim>3</dim>
					<dim>60</dim>
					<dim>108</dim>
				</port>
				<port id="1">
					<dim>1</dim>
					<dim>3</dim>
					<dim>1</dim>
					<dim>1</dim>
				</port>
			</input>
			<output>
				<port id="2" precision="FP16">
					<dim>1</dim>
					<dim>3</dim>
					<dim>60</dim>
					<dim>108</dim>
				</port>
			</output>
		</layer>
		<layer id="328" name="10403076/Cast_192809_const" type="Const" version="opset1">
			<data element_type="i32" offset="3717350" shape="" size="4"/>
			<output>
				<port id="1" precision="I32"/>
			</output>
		</layer>
		<layer id="329" name="10403076/Cast_292811_const" type="Const" version="opset1">
			<data element_type="i64" offset="3717354" shape="" size="8"/>
			<output>
				<port id="1" precision="I64"/>
			</output>
		</layer>
		<layer id="330" name="10403076" type="Gather" version="opset1">
			<input>
				<port id="0">
					<dim>1</dim>
					<dim>3</dim>
					<dim>60</dim>
					<dim>108</dim>
				</port>
				<port id="1"/>
				<port id="2"/>
			</input>
			<output>
				<port id="3" precision="FP16">
					<dim>3</dim>
					<dim>60</dim>
					<dim>108</dim>
				</port>
			</output>
		</layer>
		<layer id="331" name="1069/Cast_192989_const" type="Const" version="opset1">
			<data element_type="i64" offset="3717362" shape="3" size="24"/>
			<output>
				<port id="1" precision="I64">
					<dim>3</dim>
				</port>
			</output>
		</layer>
		<layer id="332" name="1069" type="Transpose" version="opset1">
			<input>
				<port id="0">
					<dim>3</dim>
					<dim>60</dim>
					<dim>108</dim>
				</port>
				<port id="1">
					<dim>3</dim>
				</port>
			</input>
			<output>
				<port id="2" precision="FP16">
					<dim>60</dim>
					<dim>108</dim>
					<dim>3</dim>
				</port>
			</output>
		</layer>
		<layer id="333" name="1071/Cast_193145_const" type="Const" version="opset1">
			<data element_type="i64" offset="3717386" shape="2" size="16"/>
			<output>
				<port id="1" precision="I64">
					<dim>2</dim>
				</port>
			</output>
		</layer>
		<layer id="334" name="1071" type="Reshape" version="opset1">
			<data special_zero="True"/>
			<input>
				<port id="0">
					<dim>60</dim>
					<dim>108</dim>
					<dim>3</dim>
				</port>
				<port id="1">
					<dim>2</dim>
				</port>
			</input>
			<output>
				<port id="2" precision="FP16">
					<dim>19440</dim>
					<dim>1</dim>
				</port>
			</output>
		</layer>
		<layer id="335" name="1072" type="Sigmoid" version="opset1">
			<input>
				<port id="0">
					<dim>19440</dim>
					<dim>1</dim>
				</port>
			</input>
			<output>
				<port id="1" precision="FP16">
					<dim>19440</dim>
					<dim>1</dim>
				</port>
			</output>
		</layer>
		<layer id="336" name="Copy_bbox_head.reg_convs.0.conv.weight/Output_0/Data__const" type="Const" version="opset1">
			<data element_type="f16" offset="3717402" shape="32,32,3,3" size="18432"/>
			<output>
				<port id="1" precision="FP16">
					<dim>32</dim>
					<dim>32</dim>
					<dim>3</dim>
					<dim>3</dim>
				</port>
			</output>
		</layer>
		<layer id="337" name="581" type="Convolution" version="opset1">
			<data dilations="1,1" output_padding="0,0" pads_begin="1,1" pads_end="1,1" strides="1,1"/>
			<input>
				<port id="0">
					<dim>1</dim>
					<dim>32</dim>
					<dim>60</dim>
					<dim>108</dim>
				</port>
				<port id="1">
					<dim>32</dim>
					<dim>32</dim>
					<dim>3</dim>
					<dim>3</dim>
				</port>
			</input>
			<output>
				<port id="2" precision="FP16">
					<dim>1</dim>
					<dim>32</dim>
					<dim>60</dim>
					<dim>108</dim>
				</port>
			</output>
		</layer>
		<layer id="338" name="582/Ins_Norm/MVN_" type="MVN" version="opset2">
			<data across_channels="0" eps="9.999999747378752e-06" normalize_variance="1"/>
			<input>
				<port id="0">
					<dim>1</dim>
					<dim>32</dim>
					<dim>60</dim>
					<dim>108</dim>
				</port>
			</input>
			<output>
				<port id="1" precision="FP16">
					<dim>1</dim>
					<dim>32</dim>
					<dim>60</dim>
					<dim>108</dim>
				</port>
			</output>
		</layer>
		<layer id="339" name="bbox_head.reg_convs.0.gn.weight43337/EltwiseUnsqueeze44033_const" type="Const" version="opset1">
			<data element_type="f16" offset="3735834" shape="1,32,1,1" size="64"/>
			<output>
				<port id="1" precision="FP16">
					<dim>1</dim>
					<dim>32</dim>
					<dim>1</dim>
					<dim>1</dim>
				</port>
			</output>
		</layer>
		<layer id="340" name="582/Ins_Norm/mul_" type="Multiply" version="opset1">
			<input>
				<port id="0">
					<dim>1</dim>
					<dim>32</dim>
					<dim>60</dim>
					<dim>108</dim>
				</port>
				<port id="1">
					<dim>1</dim>
					<dim>32</dim>
					<dim>1</dim>
					<dim>1</dim>
				</port>
			</input>
			<output>
				<port id="2" precision="FP16">
					<dim>1</dim>
					<dim>32</dim>
					<dim>60</dim>
					<dim>108</dim>
				</port>
			</output>
		</layer>
		<layer id="341" name="bbox_head.reg_convs.0.gn.bias43332/EltwiseUnsqueeze44037_const" type="Const" version="opset1">
			<data element_type="f16" offset="3735898" shape="1,32,1,1" size="64"/>
			<output>
				<port id="1" precision="FP16">
					<dim>1</dim>
					<dim>32</dim>
					<dim>1</dim>
					<dim>1</dim>
				</port>
			</output>
		</layer>
		<layer id="342" name="582/Ins_Norm/add_" type="Add" version="opset1">
			<input>
				<port id="0">
					<dim>1</dim>
					<dim>32</dim>
					<dim>60</dim>
					<dim>108</dim>
				</port>
				<port id="1">
					<dim>1</dim>
					<dim>32</dim>
					<dim>1</dim>
					<dim>1</dim>
				</port>
			</input>
			<output>
				<port id="2" precision="FP16">
					<dim>1</dim>
					<dim>32</dim>
					<dim>60</dim>
					<dim>108</dim>
				</port>
			</output>
		</layer>
		<layer id="343" name="583" type="ReLU" version="opset1">
			<input>
				<port id="0">
					<dim>1</dim>
					<dim>32</dim>
					<dim>60</dim>
					<dim>108</dim>
				</port>
			</input>
			<output>
				<port id="1" precision="FP16">
					<dim>1</dim>
					<dim>32</dim>
					<dim>60</dim>
					<dim>108</dim>
				</port>
			</output>
		</layer>
		<layer id="344" name="Copy_bbox_head.reg_convs.1.conv.weight/Output_0/Data__const" type="Const" version="opset1">
			<data element_type="f16" offset="3735962" shape="32,32,3,3" size="18432"/>
			<output>
				<port id="1" precision="FP16">
					<dim>32</dim>
					<dim>32</dim>
					<dim>3</dim>
					<dim>3</dim>
				</port>
			</output>
		</layer>
		<layer id="345" name="584" type="Convolution" version="opset1">
			<data dilations="1,1" output_padding="0,0" pads_begin="1,1" pads_end="1,1" strides="1,1"/>
			<input>
				<port id="0">
					<dim>1</dim>
					<dim>32</dim>
					<dim>60</dim>
					<dim>108</dim>
				</port>
				<port id="1">
					<dim>32</dim>
					<dim>32</dim>
					<dim>3</dim>
					<dim>3</dim>
				</port>
			</input>
			<output>
				<port id="2" precision="FP16">
					<dim>1</dim>
					<dim>32</dim>
					<dim>60</dim>
					<dim>108</dim>
				</port>
			</output>
		</layer>
		<layer id="346" name="585/Ins_Norm/MVN_" type="MVN" version="opset2">
			<data across_channels="0" eps="9.999999747378752e-06" normalize_variance="1"/>
			<input>
				<port id="0">
					<dim>1</dim>
					<dim>32</dim>
					<dim>60</dim>
					<dim>108</dim>
				</port>
			</input>
			<output>
				<port id="1" precision="FP16">
					<dim>1</dim>
					<dim>32</dim>
					<dim>60</dim>
					<dim>108</dim>
				</port>
			</output>
		</layer>
		<layer id="347" name="bbox_head.reg_convs.1.gn.weight43352/EltwiseUnsqueeze44097_const" type="Const" version="opset1">
			<data element_type="f16" offset="3754394" shape="1,32,1,1" size="64"/>
			<output>
				<port id="1" precision="FP16">
					<dim>1</dim>
					<dim>32</dim>
					<dim>1</dim>
					<dim>1</dim>
				</port>
			</output>
		</layer>
		<layer id="348" name="585/Ins_Norm/mul_" type="Multiply" version="opset1">
			<input>
				<port id="0">
					<dim>1</dim>
					<dim>32</dim>
					<dim>60</dim>
					<dim>108</dim>
				</port>
				<port id="1">
					<dim>1</dim>
					<dim>32</dim>
					<dim>1</dim>
					<dim>1</dim>
				</port>
			</input>
			<output>
				<port id="2" precision="FP16">
					<dim>1</dim>
					<dim>32</dim>
					<dim>60</dim>
					<dim>108</dim>
				</port>
			</output>
		</layer>
		<layer id="349" name="bbox_head.reg_convs.1.gn.bias43347/EltwiseUnsqueeze44101_const" type="Const" version="opset1">
			<data element_type="f16" offset="3754458" shape="1,32,1,1" size="64"/>
			<output>
				<port id="1" precision="FP16">
					<dim>1</dim>
					<dim>32</dim>
					<dim>1</dim>
					<dim>1</dim>
				</port>
			</output>
		</layer>
		<layer id="350" name="585/Ins_Norm/add_" type="Add" version="opset1">
			<input>
				<port id="0">
					<dim>1</dim>
					<dim>32</dim>
					<dim>60</dim>
					<dim>108</dim>
				</port>
				<port id="1">
					<dim>1</dim>
					<dim>32</dim>
					<dim>1</dim>
					<dim>1</dim>
				</port>
			</input>
			<output>
				<port id="2" precision="FP16">
					<dim>1</dim>
					<dim>32</dim>
					<dim>60</dim>
					<dim>108</dim>
				</port>
			</output>
		</layer>
		<layer id="351" name="586" type="ReLU" version="opset1">
			<input>
				<port id="0">
					<dim>1</dim>
					<dim>32</dim>
					<dim>60</dim>
					<dim>108</dim>
				</port>
			</input>
			<output>
				<port id="1" precision="FP16">
					<dim>1</dim>
					<dim>32</dim>
					<dim>60</dim>
					<dim>108</dim>
				</port>
			</output>
		</layer>
		<layer id="352" name="Copy_bbox_head.reg_convs.2.conv.weight/Output_0/Data__const" type="Const" version="opset1">
			<data element_type="f16" offset="3754522" shape="32,32,3,3" size="18432"/>
			<output>
				<port id="1" precision="FP16">
					<dim>32</dim>
					<dim>32</dim>
					<dim>3</dim>
					<dim>3</dim>
				</port>
			</output>
		</layer>
		<layer id="353" name="587" type="Convolution" version="opset1">
			<data dilations="1,1" output_padding="0,0" pads_begin="1,1" pads_end="1,1" strides="1,1"/>
			<input>
				<port id="0">
					<dim>1</dim>
					<dim>32</dim>
					<dim>60</dim>
					<dim>108</dim>
				</port>
				<port id="1">
					<dim>32</dim>
					<dim>32</dim>
					<dim>3</dim>
					<dim>3</dim>
				</port>
			</input>
			<output>
				<port id="2" precision="FP16">
					<dim>1</dim>
					<dim>32</dim>
					<dim>60</dim>
					<dim>108</dim>
				</port>
			</output>
		</layer>
		<layer id="354" name="588/Ins_Norm/MVN_" type="MVN" version="opset2">
			<data across_channels="0" eps="9.999999747378752e-06" normalize_variance="1"/>
			<input>
				<port id="0">
					<dim>1</dim>
					<dim>32</dim>
					<dim>60</dim>
					<dim>108</dim>
				</port>
			</input>
			<output>
				<port id="1" precision="FP16">
					<dim>1</dim>
					<dim>32</dim>
					<dim>60</dim>
					<dim>108</dim>
				</port>
			</output>
		</layer>
		<layer id="355" name="bbox_head.reg_convs.2.gn.weight/EltwiseUnsqueeze43785_const" type="Const" version="opset1">
			<data element_type="f16" offset="3772954" shape="1,32,1,1" size="64"/>
			<output>
				<port id="1" precision="FP16">
					<dim>1</dim>
					<dim>32</dim>
					<dim>1</dim>
					<dim>1</dim>
				</port>
			</output>
		</layer>
		<layer id="356" name="588/Ins_Norm/mul_" type="Multiply" version="opset1">
			<input>
				<port id="0">
					<dim>1</dim>
					<dim>32</dim>
					<dim>60</dim>
					<dim>108</dim>
				</port>
				<port id="1">
					<dim>1</dim>
					<dim>32</dim>
					<dim>1</dim>
					<dim>1</dim>
				</port>
			</input>
			<output>
				<port id="2" precision="FP16">
					<dim>1</dim>
					<dim>32</dim>
					<dim>60</dim>
					<dim>108</dim>
				</port>
			</output>
		</layer>
		<layer id="357" name="bbox_head.reg_convs.2.gn.bias/EltwiseUnsqueeze43789_const" type="Const" version="opset1">
			<data element_type="f16" offset="3773018" shape="1,32,1,1" size="64"/>
			<output>
				<port id="1" precision="FP16">
					<dim>1</dim>
					<dim>32</dim>
					<dim>1</dim>
					<dim>1</dim>
				</port>
			</output>
		</layer>
		<layer id="358" name="588/Ins_Norm/add_" type="Add" version="opset1">
			<input>
				<port id="0">
					<dim>1</dim>
					<dim>32</dim>
					<dim>60</dim>
					<dim>108</dim>
				</port>
				<port id="1">
					<dim>1</dim>
					<dim>32</dim>
					<dim>1</dim>
					<dim>1</dim>
				</port>
			</input>
			<output>
				<port id="2" precision="FP16">
					<dim>1</dim>
					<dim>32</dim>
					<dim>60</dim>
					<dim>108</dim>
				</port>
			</output>
		</layer>
		<layer id="359" name="589" type="ReLU" version="opset1">
			<input>
				<port id="0">
					<dim>1</dim>
					<dim>32</dim>
					<dim>60</dim>
					<dim>108</dim>
				</port>
			</input>
			<output>
				<port id="1" precision="FP16">
					<dim>1</dim>
					<dim>32</dim>
					<dim>60</dim>
					<dim>108</dim>
				</port>
			</output>
		</layer>
		<layer id="360" name="Copy_bbox_head.reg_convs.3.conv.weight/Output_0/Data__const" type="Const" version="opset1">
			<data element_type="f16" offset="3773082" shape="32,32,3,3" size="18432"/>
			<output>
				<port id="1" precision="FP16">
					<dim>32</dim>
					<dim>32</dim>
					<dim>3</dim>
					<dim>3</dim>
				</port>
			</output>
		</layer>
		<layer id="361" name="590" type="Convolution" version="opset1">
			<data dilations="1,1" output_padding="0,0" pads_begin="1,1" pads_end="1,1" strides="1,1"/>
			<input>
				<port id="0">
					<dim>1</dim>
					<dim>32</dim>
					<dim>60</dim>
					<dim>108</dim>
				</port>
				<port id="1">
					<dim>32</dim>
					<dim>32</dim>
					<dim>3</dim>
					<dim>3</dim>
				</port>
			</input>
			<output>
				<port id="2" precision="FP16">
					<dim>1</dim>
					<dim>32</dim>
					<dim>60</dim>
					<dim>108</dim>
				</port>
			</output>
		</layer>
		<layer id="362" name="591/Ins_Norm/MVN_" type="MVN" version="opset2">
			<data across_channels="0" eps="9.999999747378752e-06" normalize_variance="1"/>
			<input>
				<port id="0">
					<dim>1</dim>
					<dim>32</dim>
					<dim>60</dim>
					<dim>108</dim>
				</port>
			</input>
			<output>
				<port id="1" precision="FP16">
					<dim>1</dim>
					<dim>32</dim>
					<dim>60</dim>
					<dim>108</dim>
				</port>
			</output>
		</layer>
		<layer id="363" name="bbox_head.reg_convs.3.gn.weight43379/EltwiseUnsqueeze43905_const" type="Const" version="opset1">
			<data element_type="f16" offset="3791514" shape="1,32,1,1" size="64"/>
			<output>
				<port id="1" precision="FP16">
					<dim>1</dim>
					<dim>32</dim>
					<dim>1</dim>
					<dim>1</dim>
				</port>
			</output>
		</layer>
		<layer id="364" name="591/Ins_Norm/mul_" type="Multiply" version="opset1">
			<input>
				<port id="0">
					<dim>1</dim>
					<dim>32</dim>
					<dim>60</dim>
					<dim>108</dim>
				</port>
				<port id="1">
					<dim>1</dim>
					<dim>32</dim>
					<dim>1</dim>
					<dim>1</dim>
				</port>
			</input>
			<output>
				<port id="2" precision="FP16">
					<dim>1</dim>
					<dim>32</dim>
					<dim>60</dim>
					<dim>108</dim>
				</port>
			</output>
		</layer>
		<layer id="365" name="bbox_head.reg_convs.3.gn.bias43374/EltwiseUnsqueeze43909_const" type="Const" version="opset1">
			<data element_type="f16" offset="3791578" shape="1,32,1,1" size="64"/>
			<output>
…
		<edge from-layer="2091" from-port="2" to-layer="2093" to-port="0"/>
		<edge from-layer="2092" from-port="1" to-layer="2093" to-port="1"/>
		<edge from-layer="2089" from-port="2" to-layer="2094" to-port="0"/>
		<edge from-layer="2093" from-port="2" to-layer="2094" to-port="1"/>
		<edge from-layer="2094" from-port="2" to-layer="2096" to-port="0"/>
		<edge from-layer="2095" from-port="1" to-layer="2096" to-port="1"/>
		<edge from-layer="2094" from-port="2" to-layer="2098" to-port="0"/>
		<edge from-layer="2097" from-port="1" to-layer="2099" to-port="0"/>
		<edge from-layer="2098" from-port="1" to-layer="2099" to-port="1"/>
		<edge from-layer="2099" from-port="2" to-layer="2101" to-port="0"/>
		<edge from-layer="2100" from-port="1" to-layer="2101" to-port="1"/>
		<edge from-layer="2096" from-port="2" to-layer="2102" to-port="0"/>
		<edge from-layer="2101" from-port="2" to-layer="2102" to-port="1"/>
		<edge from-layer="2102" from-port="2" to-layer="2104" to-port="0"/>
		<edge from-layer="2103" from-port="1" to-layer="2104" to-port="1"/>
		<edge from-layer="2104" from-port="2" to-layer="2106" to-port="0"/>
		<edge from-layer="2105" from-port="1" to-layer="2106" to-port="1"/>
		<edge from-layer="1085" from-port="4" to-layer="2109" to-port="0"/>
		<edge from-layer="2107" from-port="1" to-layer="2109" to-port="1"/>
		<edge from-layer="2108" from-port="1" to-layer="2109" to-port="2"/>
		<edge from-layer="2109" from-port="3" to-layer="2110" to-port="0"/>
		<edge from-layer="2110" from-port="1" to-layer="2112" to-port="0"/>
		<edge from-layer="2111" from-port="1" to-layer="2112" to-port="1"/>
		<edge from-layer="2104" from-port="2" to-layer="2113" to-port="0"/>
		<edge from-layer="2112" from-port="2" to-layer="2114" to-port="0"/>
		<edge from-layer="2113" from-port="1" to-layer="2114" to-port="1"/>
		<edge from-layer="2114" from-port="2" to-layer="2116" to-port="0"/>
		<edge from-layer="2115" from-port="1" to-layer="2116" to-port="1"/>
		<edge from-layer="2106" from-port="2" to-layer="2117" to-port="0"/>
		<edge from-layer="2116" from-port="2" to-layer="2117" to-port="1"/>
		<edge from-layer="2117" from-port="2" to-layer="2119" to-port="0"/>
		<edge from-layer="2118" from-port="1" to-layer="2119" to-port="1"/>
		<edge from-layer="2119" from-port="2" to-layer="2121" to-port="0"/>
		<edge from-layer="2120" from-port="1" to-layer="2121" to-port="1"/>
		<edge from-layer="2024" from-port="2" to-layer="2123" to-port="0"/>
		<edge from-layer="2122" from-port="1" to-layer="2123" to-port="1"/>
		<edge from-layer="2022" from-port="2" to-layer="2124" to-port="0"/>
		<edge from-layer="2123" from-port="2" to-layer="2124" to-port="1"/>
		<edge from-layer="2124" from-port="2" to-layer="2126" to-port="0"/>
		<edge from-layer="2125" from-port="1" to-layer="2126" to-port="1"/>
		<edge from-layer="2124" from-port="2" to-layer="2128" to-port="0"/>
		<edge from-layer="2127" from-port="1" to-layer="2129" to-port="0"/>
		<edge from-layer="2128" from-port="1" to-layer="2129" to-port="1"/>
		<edge from-layer="2129" from-port="2" to-layer="2131" to-port="0"/>
		<edge from-layer="2130" from-port="1" to-layer="2131" to-port="1"/>
		<edge from-layer="2126" from-port="2" to-layer="2132" to-port="0"/>
		<edge from-layer="2131" from-port="2" to-layer="2132" to-port="1"/>
		<edge from-layer="2132" from-port="2" to-layer="2134" to-port="0"/>
		<edge from-layer="2133" from-port="1" to-layer="2134" to-port="1"/>
		<edge from-layer="2134" from-port="2" to-layer="2136" to-port="0"/>
		<edge from-layer="2135" from-port="1" to-layer="2136" to-port="1"/>
		<edge from-layer="1085" from-port="4" to-layer="2139" to-port="0"/>
		<edge from-layer="2137" from-port="1" to-layer="2139" to-port="1"/>
		<edge from-layer="2138" from-port="1" to-layer="2139" to-port="2"/>
		<edge from-layer="2139" from-port="3" to-layer="2140" to-port="0"/>
		<edge from-layer="2140" from-port="1" to-layer="2142" to-port="0"/>
		<edge from-layer="2141" from-port="1" to-layer="2142" to-port="1"/>
		<edge from-layer="2134" from-port="2" to-layer="2143" to-port="0"/>
		<edge from-layer="2142" from-port="2" to-layer="2144" to-port="0"/>
		<edge from-layer="2143" from-port="1" to-layer="2144" to-port="1"/>
		<edge from-layer="2144" from-port="2" to-layer="2146" to-port="0"/>
		<edge from-layer="2145" from-port="1" to-layer="2146" to-port="1"/>
		<edge from-layer="2136" from-port="2" to-layer="2147" to-port="0"/>
		<edge from-layer="2146" from-port="2" to-layer="2147" to-port="1"/>
		<edge from-layer="2147" from-port="2" to-layer="2149" to-port="0"/>
		<edge from-layer="2148" from-port="1" to-layer="2149" to-port="1"/>
		<edge from-layer="2149" from-port="2" to-layer="2151" to-port="0"/>
		<edge from-layer="2150" from-port="1" to-layer="2151" to-port="1"/>
		<edge from-layer="2091" from-port="2" to-layer="2153" to-port="0"/>
		<edge from-layer="2152" from-port="1" to-layer="2153" to-port="1"/>
		<edge from-layer="2089" from-port="2" to-layer="2154" to-port="0"/>
		<edge from-layer="2153" from-port="2" to-layer="2154" to-port="1"/>
		<edge from-layer="2154" from-port="2" to-layer="2156" to-port="0"/>
		<edge from-layer="2155" from-port="1" to-layer="2156" to-port="1"/>
		<edge from-layer="2154" from-port="2" to-layer="2158" to-port="0"/>
		<edge from-layer="2157" from-port="1" to-layer="2159" to-port="0"/>
		<edge from-layer="2158" from-port="1" to-layer="2159" to-port="1"/>
		<edge from-layer="2159" from-port="2" to-layer="2161" to-port="0"/>
		<edge from-layer="2160" from-port="1" to-layer="2161" to-port="1"/>
		<edge from-layer="2156" from-port="2" to-layer="2162" to-port="0"/>
		<edge from-layer="2161" from-port="2" to-layer="2162" to-port="1"/>
		<edge from-layer="2162" from-port="2" to-layer="2164" to-port="0"/>
		<edge from-layer="2163" from-port="1" to-layer="2164" to-port="1"/>
		<edge from-layer="2164" from-port="2" to-layer="2166" to-port="0"/>
		<edge from-layer="2165" from-port="1" to-layer="2166" to-port="1"/>
		<edge from-layer="1085" from-port="4" to-layer="2169" to-port="0"/>
		<edge from-layer="2167" from-port="1" to-layer="2169" to-port="1"/>
		<edge from-layer="2168" from-port="1" to-layer="2169" to-port="2"/>
		<edge from-layer="2169" from-port="3" to-layer="2170" to-port="0"/>
		<edge from-layer="2170" from-port="1" to-layer="2172" to-port="0"/>
		<edge from-layer="2171" from-port="1" to-layer="2172" to-port="1"/>
		<edge from-layer="2164" from-port="2" to-layer="2173" to-port="0"/>
		<edge from-layer="2172" from-port="2" to-layer="2174" to-port="0"/>
		<edge from-layer="2173" from-port="1" to-layer="2174" to-port="1"/>
		<edge from-layer="2174" from-port="2" to-layer="2176" to-port="0"/>
		<edge from-layer="2175" from-port="1" to-layer="2176" to-port="1"/>
		<edge from-layer="2166" from-port="2" to-layer="2177" to-port="0"/>
		<edge from-layer="2176" from-port="2" to-layer="2177" to-port="1"/>
		<edge from-layer="2177" from-port="2" to-layer="2179" to-port="0"/>
		<edge from-layer="2178" from-port="1" to-layer="2179" to-port="1"/>
		<edge from-layer="2179" from-port="2" to-layer="2181" to-port="0"/>
		<edge from-layer="2180" from-port="1" to-layer="2181" to-port="1"/>
		<edge from-layer="2054" from-port="2" to-layer="2182" to-port="0"/>
		<edge from-layer="2121" from-port="2" to-layer="2182" to-port="1"/>
		<edge from-layer="2151" from-port="2" to-layer="2182" to-port="2"/>
		<edge from-layer="2181" from-port="2" to-layer="2182" to-port="3"/>
		<edge from-layer="1972" from-port="3" to-layer="2183" to-port="0"/>
		<edge from-layer="2182" from-port="4" to-layer="2184" to-port="0"/>
		<edge from-layer="2183" from-port="1" to-layer="2184" to-port="1"/>
		<edge from-layer="823" from-port="2" to-layer="2187" to-port="0"/>
		<edge from-layer="2187" from-port="1" to-layer="2190" to-port="0"/>
		<edge from-layer="2188" from-port="1" to-layer="2190" to-port="1"/>
		<edge from-layer="2189" from-port="1" to-layer="2190" to-port="2"/>
		<edge from-layer="2190" from-port="3" to-layer="2192" to-port="0"/>
		<edge from-layer="2191" from-port="1" to-layer="2192" to-port="1"/>
		<edge from-layer="2192" from-port="2" to-layer="2194" to-port="0"/>
		<edge from-layer="2193" from-port="1" to-layer="2194" to-port="1"/>
		<edge from-layer="2194" from-port="2" to-layer="2196" to-port="0"/>
		<edge from-layer="2195" from-port="1" to-layer="2196" to-port="1"/>
		<edge from-layer="2186" from-port="1" to-layer="2197" to-port="0"/>
		<edge from-layer="2196" from-port="2" to-layer="2197" to-port="1"/>
		<edge from-layer="2197" from-port="2" to-layer="2198" to-port="0"/>
		<edge from-layer="2198" from-port="1" to-layer="2200" to-port="0"/>
		<edge from-layer="2199" from-port="1" to-layer="2200" to-port="1"/>
		<edge from-layer="2200" from-port="2" to-layer="2202" to-port="0"/>
		<edge from-layer="2201" from-port="1" to-layer="2202" to-port="1"/>
		<edge from-layer="2202" from-port="2" to-layer="2204" to-port="0"/>
		<edge from-layer="2203" from-port="1" to-layer="2204" to-port="1"/>
		<edge from-layer="2204" from-port="2" to-layer="2206" to-port="0"/>
		<edge from-layer="2205" from-port="1" to-layer="2206" to-port="1"/>
		<edge from-layer="2206" from-port="2" to-layer="2208" to-port="0"/>
		<edge from-layer="2207" from-port="1" to-layer="2208" to-port="1"/>
		<edge from-layer="2208" from-port="2" to-layer="2210" to-port="0"/>
		<edge from-layer="2209" from-port="1" to-layer="2210" to-port="1"/>
		<edge from-layer="2210" from-port="2" to-layer="2212" to-port="0"/>
		<edge from-layer="2211" from-port="1" to-layer="2213" to-port="0"/>
		<edge from-layer="2212" from-port="1" to-layer="2213" to-port="1"/>
		<edge from-layer="2210" from-port="2" to-layer="2214" to-port="0"/>
		<edge from-layer="2213" from-port="2" to-layer="2214" to-port="1"/>
		<edge from-layer="823" from-port="2" to-layer="2216" to-port="0"/>
		<edge from-layer="2216" from-port="1" to-layer="2219" to-port="0"/>
		<edge from-layer="2217" from-port="1" to-layer="2219" to-port="1"/>
		<edge from-layer="2218" from-port="1" to-layer="2219" to-port="2"/>
		<edge from-layer="2219" from-port="3" to-layer="2221" to-port="0"/>
		<edge from-layer="2220" from-port="1" to-layer="2221" to-port="1"/>
		<edge from-layer="2221" from-port="2" to-layer="2223" to-port="0"/>
		<edge from-layer="2222" from-port="1" to-layer="2223" to-port="1"/>
		<edge from-layer="2223" from-port="2" to-layer="2225" to-port="0"/>
		<edge from-layer="2224" from-port="1" to-layer="2225" to-port="1"/>
		<edge from-layer="2215" from-port="1" to-layer="2226" to-port="0"/>
		<edge from-layer="2225" from-port="2" to-layer="2226" to-port="1"/>
		<edge from-layer="2226" from-port="2" to-layer="2227" to-port="0"/>
		<edge from-layer="2227" from-port="1" to-layer="2229" to-port="0"/>
		<edge from-layer="2228" from-port="1" to-layer="2229" to-port="1"/>
		<edge from-layer="2229" from-port="2" to-layer="2231" to-port="0"/>
		<edge from-layer="2230" from-port="1" to-layer="2231" to-port="1"/>
		<edge from-layer="2231" from-port="2" to-layer="2233" to-port="0"/>
		<edge from-layer="2232" from-port="1" to-layer="2233" to-port="1"/>
		<edge from-layer="2233" from-port="2" to-layer="2235" to-port="0"/>
		<edge from-layer="2234" from-port="1" to-layer="2235" to-port="1"/>
		<edge from-layer="2235" from-port="2" to-layer="2237" to-port="0"/>
		<edge from-layer="2236" from-port="1" to-layer="2237" to-port="1"/>
		<edge from-layer="2237" from-port="2" to-layer="2239" to-port="0"/>
		<edge from-layer="2238" from-port="1" to-layer="2239" to-port="1"/>
		<edge from-layer="2239" from-port="2" to-layer="2240" to-port="0"/>
		<edge from-layer="2240" from-port="1" to-layer="2241" to-port="0"/>
		<edge from-layer="2212" from-port="1" to-layer="2241" to-port="1"/>
		<edge from-layer="2214" from-port="2" to-layer="2242" to-port="0"/>
		<edge from-layer="2241" from-port="2" to-layer="2242" to-port="1"/>
		<edge from-layer="2242" from-port="2" to-layer="2244" to-port="0"/>
		<edge from-layer="2243" from-port="1" to-layer="2244" to-port="1"/>
		<edge from-layer="2240" from-port="1" to-layer="2246" to-port="0"/>
		<edge from-layer="2245" from-port="1" to-layer="2246" to-port="1"/>
		<edge from-layer="2239" from-port="2" to-layer="2247" to-port="0"/>
		<edge from-layer="2246" from-port="2" to-layer="2247" to-port="1"/>
		<edge from-layer="2247" from-port="2" to-layer="2248" to-port="0"/>
		<edge from-layer="2241" from-port="2" to-layer="2248" to-port="1"/>
		<edge from-layer="2248" from-port="2" to-layer="2250" to-port="0"/>
		<edge from-layer="2249" from-port="1" to-layer="2250" to-port="1"/>
		<edge from-layer="2242" from-port="2" to-layer="2252" to-port="0"/>
		<edge from-layer="2251" from-port="1" to-layer="2252" to-port="1"/>
		<edge from-layer="2248" from-port="2" to-layer="2254" to-port="0"/>
		<edge from-layer="2253" from-port="1" to-layer="2254" to-port="1"/>
		<edge from-layer="2244" from-port="2" to-layer="2255" to-port="0"/>
		<edge from-layer="2250" from-port="2" to-layer="2255" to-port="1"/>
		<edge from-layer="2252" from-port="2" to-layer="2255" to-port="2"/>
		<edge from-layer="2254" from-port="2" to-layer="2255" to-port="3"/>
		<edge from-layer="2255" from-port="4" to-layer="2257" to-port="0"/>
		<edge from-layer="2256" from-port="1" to-layer="2257" to-port="1"/>
		<edge from-layer="2257" from-port="2" to-layer="2258" to-port="0"/>
		<edge from-layer="2185" from-port="1" to-layer="2259" to-port="0"/>
		<edge from-layer="2258" from-port="1" to-layer="2259" to-port="1"/>
		<edge from-layer="2259" from-port="2" to-layer="2261" to-port="0"/>
		<edge from-layer="2260" from-port="1" to-layer="2261" to-port="1"/>
		<edge from-layer="906" from-port="3" to-layer="2262" to-port="0"/>
		<edge from-layer="2262" from-port="1" to-layer="2263" to-port="0"/>
		<edge from-layer="2261" from-port="2" to-layer="2265" to-port="0"/>
		<edge from-layer="2263" from-port="1" to-layer="2265" to-port="1"/>
		<edge from-layer="2264" from-port="1" to-layer="2265" to-port="2"/>
		<edge from-layer="2265" from-port="3" to-layer="2268" to-port="0"/>
		<edge from-layer="2266" from-port="1" to-layer="2268" to-port="1"/>
		<edge from-layer="2267" from-port="1" to-layer="2268" to-port="2"/>
		<edge from-layer="2265" from-port="3" to-layer="2271" to-port="0"/>
		<edge from-layer="2269" from-port="1" to-layer="2271" to-port="1"/>
		<edge from-layer="2270" from-port="1" to-layer="2271" to-port="2"/>
		<edge from-layer="2268" from-port="3" to-layer="2272" to-port="0"/>
		<edge from-layer="2271" from-port="3" to-layer="2272" to-port="1"/>
		<edge from-layer="2272" from-port="2" to-layer="2274" to-port="0"/>
		<edge from-layer="2273" from-port="1" to-layer="2274" to-port="1"/>
		<edge from-layer="2274" from-port="2" to-layer="2276" to-port="0"/>
		<edge from-layer="2275" from-port="1" to-layer="2276" to-port="1"/>
		<edge from-layer="863" from-port="1" to-layer="2278" to-port="0"/>
		<edge from-layer="2277" from-port="1" to-layer="2278" to-port="1"/>
		<edge from-layer="2278" from-port="2" to-layer="2280" to-port="0"/>
		<edge from-layer="2279" from-port="1" to-layer="2280" to-port="1"/>
		<edge from-layer="2280" from-port="2" to-layer="2283" to-port="0"/>
		<edge from-layer="2281" from-port="1" to-layer="2283" to-port="1"/>
		<edge from-layer="2282" from-port="1" to-layer="2283" to-port="2"/>
		<edge from-layer="2283" from-port="3" to-layer="2285" to-port="0"/>
		<edge from-layer="2284" from-port="1" to-layer="2285" to-port="1"/>
		<edge from-layer="2285" from-port="2" to-layer="2287" to-port="0"/>
		<edge from-layer="2286" from-port="1" to-layer="2287" to-port="1"/>
		<edge from-layer="2262" from-port="1" to-layer="2288" to-port="0"/>
		<edge from-layer="2287" from-port="2" to-layer="2290" to-port="0"/>
		<edge from-layer="2288" from-port="1" to-layer="2290" to-port="1"/>
		<edge from-layer="2289" from-port="1" to-layer="2290" to-port="2"/>
		<edge from-layer="2290" from-port="3" to-layer="2293" to-port="0"/>
		<edge from-layer="2293" from-port="1" to-layer="2296" to-port="0"/>
		<edge from-layer="2294" from-port="1" to-layer="2296" to-port="1"/>
		<edge from-layer="2295" from-port="1" to-layer="2296" to-port="2"/>
		<edge from-layer="2296" from-port="3" to-layer="2298" to-port="0"/>
		<edge from-layer="2297" from-port="1" to-layer="2298" to-port="1"/>
		<edge from-layer="2298" from-port="2" to-layer="2300" to-port="0"/>
		<edge from-layer="2299" from-port="1" to-layer="2300" to-port="1"/>
		<edge from-layer="2292" from-port="1" to-layer="2301" to-port="0"/>
		<edge from-layer="2300" from-port="2" to-layer="2301" to-port="1"/>
		<edge from-layer="2291" from-port="1" to-layer="2302" to-port="0"/>
		<edge from-layer="2301" from-port="2" to-layer="2302" to-port="1"/>
		<edge from-layer="2290" from-port="3" to-layer="2303" to-port="0"/>
		<edge from-layer="2302" from-port="2" to-layer="2303" to-port="1"/>
		<edge from-layer="2290" from-port="3" to-layer="2306" to-port="0"/>
		<edge from-layer="2306" from-port="1" to-layer="2309" to-port="0"/>
		<edge from-layer="2307" from-port="1" to-layer="2309" to-port="1"/>
		<edge from-layer="2308" from-port="1" to-layer="2309" to-port="2"/>
		<edge from-layer="2309" from-port="3" to-layer="2311" to-port="0"/>
		<edge from-layer="2310" from-port="1" to-layer="2311" to-port="1"/>
		<edge from-layer="2311" from-port="2" to-layer="2313" to-port="0"/>
		<edge from-layer="2312" from-port="1" to-layer="2313" to-port="1"/>
		<edge from-layer="2305" from-port="1" to-layer="2314" to-port="0"/>
		<edge from-layer="2313" from-port="2" to-layer="2314" to-port="1"/>
		<edge from-layer="2304" from-port="1" to-layer="2315" to-port="0"/>
		<edge from-layer="2314" from-port="2" to-layer="2315" to-port="1"/>
		<edge from-layer="2303" from-port="2" to-layer="2316" to-port="0"/>
		<edge from-layer="2315" from-port="2" to-layer="2316" to-port="1"/>
		<edge from-layer="2316" from-port="2" to-layer="2320" to-port="0"/>
		<edge from-layer="2317" from-port="1" to-layer="2320" to-port="1"/>
		<edge from-layer="2318" from-port="1" to-layer="2320" to-port="2"/>
		<edge from-layer="2319" from-port="1" to-layer="2320" to-port="3"/>
		<edge from-layer="2320" from-port="4" to-layer="2321" to-port="0"/>
		<edge from-layer="2276" from-port="2" to-layer="2322" to-port="0"/>
		<edge from-layer="2321" from-port="1" to-layer="2322" to-port="1"/>
		<edge from-layer="2265" from-port="3" to-layer="2325" to-port="0"/>
		<edge from-layer="2323" from-port="1" to-layer="2325" to-port="1"/>
		<edge from-layer="2324" from-port="1" to-layer="2325" to-port="2"/>
		<edge from-layer="2265" from-port="3" to-layer="2328" to-port="0"/>
		<edge from-layer="2326" from-port="1" to-layer="2328" to-port="1"/>
		<edge from-layer="2327" from-port="1" to-layer="2328" to-port="2"/>
		<edge from-layer="2325" from-port="3" to-layer="2329" to-port="0"/>
		<edge from-layer="2328" from-port="3" to-layer="2329" to-port="1"/>
		<edge from-layer="2329" from-port="2" to-layer="2331" to-port="0"/>
		<edge from-layer="2330" from-port="1" to-layer="2331" to-port="1"/>
		<edge from-layer="2316" from-port="2" to-layer="2335" to-port="0"/>
		<edge from-layer="2332" from-port="1" to-layer="2335" to-port="1"/>
		<edge from-layer="2333" from-port="1" to-layer="2335" to-port="2"/>
		<edge from-layer="2334" from-port="1" to-layer="2335" to-port="3"/>
		<edge from-layer="2335" from-port="4" to-layer="2336" to-port="0"/>
		<edge from-layer="2336" from-port="1" to-layer="2337" to-port="0"/>
		<edge from-layer="2331" from-port="2" to-layer="2338" to-port="0"/>
		<edge from-layer="2337" from-port="1" to-layer="2338" to-port="1"/>
		<edge from-layer="2338" from-port="2" to-layer="2339" to-port="0"/>
		<edge from-layer="2320" from-port="4" to-layer="2339" to-port="1"/>
		<edge from-layer="2322" from-port="2" to-layer="2340" to-port="0"/>
		<edge from-layer="2339" from-port="2" to-layer="2340" to-port="1"/>
		<edge from-layer="2336" from-port="1" to-layer="2341" to-port="0"/>
		<edge from-layer="2338" from-port="2" to-layer="2342" to-port="0"/>
		<edge from-layer="2341" from-port="1" to-layer="2342" to-port="1"/>
		<edge from-layer="2342" from-port="2" to-layer="2344" to-port="0"/>
		<edge from-layer="2343" from-port="1" to-layer="2344" to-port="1"/>
		<edge from-layer="2340" from-port="2" to-layer="2345" to-port="0"/>
		<edge from-layer="2344" from-port="2" to-layer="2345" to-port="1"/>
		<edge from-layer="2345" from-port="2" to-layer="2347" to-port="0"/>
		<edge from-layer="2346" from-port="1" to-layer="2347" to-port="1"/>
		<edge from-layer="2345" from-port="2" to-layer="2349" to-port="0"/>
		<edge from-layer="2348" from-port="1" to-layer="2350" to-port="0"/>
		<edge from-layer="2349" from-port="1" to-layer="2350" to-port="1"/>
		<edge from-layer="2350" from-port="2" to-layer="2352" to-port="0"/>
		<edge from-layer="2351" from-port="1" to-layer="2352" to-port="1"/>
		<edge from-layer="2347" from-port="2" to-layer="2353" to-port="0"/>
		<edge from-layer="2352" from-port="2" to-layer="2353" to-port="1"/>
		<edge from-layer="2353" from-port="2" to-layer="2355" to-port="0"/>
		<edge from-layer="2354" from-port="1" to-layer="2355" to-port="1"/>
		<edge from-layer="2355" from-port="2" to-layer="2357" to-port="0"/>
		<edge from-layer="2356" from-port="1" to-layer="2357" to-port="1"/>
		<edge from-layer="1085" from-port="4" to-layer="2360" to-port="0"/>
		<edge from-layer="2358" from-port="1" to-layer="2360" to-port="1"/>
		<edge from-layer="2359" from-port="1" to-layer="2360" to-port="2"/>
		<edge from-layer="2360" from-port="3" to-layer="2361" to-port="0"/>
		<edge from-layer="2361" from-port="1" to-layer="2363" to-port="0"/>
		<edge from-layer="2362" from-port="1" to-layer="2363" to-port="1"/>
		<edge from-layer="2355" from-port="2" to-layer="2364" to-port="0"/>
		<edge from-layer="2363" from-port="2" to-layer="2365" to-port="0"/>
		<edge from-layer="2364" from-port="1" to-layer="2365" to-port="1"/>
		<edge from-layer="2365" from-port="2" to-layer="2367" to-port="0"/>
		<edge from-layer="2366" from-port="1" to-layer="2367" to-port="1"/>
		<edge from-layer="2357" from-port="2" to-layer="2368" to-port="0"/>
		<edge from-layer="2367" from-port="2" to-layer="2368" to-port="1"/>
		<edge from-layer="2368" from-port="2" to-layer="2370" to-port="0"/>
		<edge from-layer="2369" from-port="1" to-layer="2370" to-port="1"/>
		<edge from-layer="2370" from-port="2" to-layer="2372" to-port="0"/>
		<edge from-layer="2371" from-port="1" to-layer="2372" to-port="1"/>
		<edge from-layer="2265" from-port="3" to-layer="2375" to-port="0"/>
		<edge from-layer="2373" from-port="1" to-layer="2375" to-port="1"/>
		<edge from-layer="2374" from-port="1" to-layer="2375" to-port="2"/>
		<edge from-layer="2265" from-port="3" to-layer="2378" to-port="0"/>
		<edge from-layer="2376" from-port="1" to-layer="2378" to-port="1"/>
		<edge from-layer="2377" from-port="1" to-layer="2378" to-port="2"/>
		<edge from-layer="2375" from-port="3" to-layer="2379" to-port="0"/>
		<edge from-layer="2378" from-port="3" to-layer="2379" to-port="1"/>
		<edge from-layer="2379" from-port="2" to-layer="2381" to-port="0"/>
		<edge from-layer="2380" from-port="1" to-layer="2381" to-port="1"/>
		<edge from-layer="2381" from-port="2" to-layer="2383" to-port="0"/>
		<edge from-layer="2382" from-port="1" to-layer="2383" to-port="1"/>
		<edge from-layer="2316" from-port="2" to-layer="2387" to-port="0"/>
		<edge from-layer="2384" from-port="1" to-layer="2387" to-port="1"/>
		<edge from-layer="2385" from-port="1" to-layer="2387" to-port="2"/>
		<edge from-layer="2386" from-port="1" to-layer="2387" to-port="3"/>
		<edge from-layer="2387" from-port="4" to-layer="2388" to-port="0"/>
		<edge from-layer="2383" from-port="2" to-layer="2389" to-port="0"/>
		<edge from-layer="2388" from-port="1" to-layer="2389" to-port="1"/>
		<edge from-layer="2265" from-port="3" to-layer="2392" to-port="0"/>
		<edge from-layer="2390" from-port="1" to-layer="2392" to-port="1"/>
		<edge from-layer="2391" from-port="1" to-layer="2392" to-port="2"/>
		<edge from-layer="2265" from-port="3" to-layer="2395" to-port="0"/>
		<edge from-layer="2393" from-port="1" to-layer="2395" to-port="1"/>
		<edge from-layer="2394" from-port="1" to-layer="2395" to-port="2"/>
		<edge from-layer="2392" from-port="3" to-layer="2396" to-port="0"/>
		<edge from-layer="2395" from-port="3" to-layer="2396" to-port="1"/>
		<edge from-layer="2396" from-port="2" to-layer="2398" to-port="0"/>
		<edge from-layer="2397" from-port="1" to-layer="2398" to-port="1"/>
		<edge from-layer="2316" from-port="2" to-layer="2402" to-port="0"/>
		<edge from-layer="2399" from-port="1" to-layer="2402" to-port="1"/>
		<edge from-layer="2400" from-port="1" to-layer="2402" to-port="2"/>
		<edge from-layer="2401" from-port="1" to-layer="2402" to-port="3"/>
		<edge from-layer="2402" from-port="4" to-layer="2403" to-port="0"/>
		<edge from-layer="2403" from-port="1" to-layer="2404" to-port="0"/>
		<edge from-layer="2398" from-port="2" to-layer="2405" to-port="0"/>
		<edge from-layer="2404" from-port="1" to-layer="2405" to-port="1"/>
		<edge from-layer="2405" from-port="2" to-layer="2406" to-port="0"/>
		<edge from-layer="2387" from-port="4" to-layer="2406" to-port="1"/>
		<edge from-layer="2389" from-port="2" to-layer="2407" to-port="0"/>
		<edge from-layer="2406" from-port="2" to-layer="2407" to-port="1"/>
		<edge from-layer="2403" from-port="1" to-layer="2408" to-port="0"/>
		<edge from-layer="2405" from-port="2" to-layer="2409" to-port="0"/>
		<edge from-layer="2408" from-port="1" to-layer="2409" to-port="1"/>
		<edge from-layer="2409" from-port="2" to-layer="2411" to-port="0"/>
		<edge from-layer="2410" from-port="1" to-layer="2411" to-port="1"/>
		<edge from-layer="2407" from-port="2" to-layer="2412" to-port="0"/>
		<edge from-layer="2411" from-port="2" to-layer="2412" to-port="1"/>
		<edge from-layer="2412" from-port="2" to-layer="2414" to-port="0"/>
		<edge from-layer="2413" from-port="1" to-layer="2414" to-port="1"/>
		<edge from-layer="2412" from-port="2" to-layer="2416" to-port="0"/>
		<edge from-layer="2415" from-port="1" to-layer="2417" to-port="0"/>
		<edge from-layer="2416" from-port="1" to-layer="2417" to-port="1"/>
		<edge from-layer="2417" from-port="2" to-layer="2419" to-port="0"/>
		<edge from-layer="2418" from-port="1" to-layer="2419" to-port="1"/>
		<edge from-layer="2414" from-port="2" to-layer="2420" to-port="0"/>
		<edge from-layer="2419" from-port="2" to-layer="2420" to-port="1"/>
		<edge from-layer="2420" from-port="2" to-layer="2422" to-port="0"/>
		<edge from-layer="2421" from-port="1" to-layer="2422" to-port="1"/>
		<edge from-layer="2422" from-port="2" to-layer="2424" to-port="0"/>
		<edge from-layer="2423" from-port="1" to-layer="2424" to-port="1"/>
		<edge from-layer="1085" from-port="4" to-layer="2427" to-port="0"/>
		<edge from-layer="2425" from-port="1" to-layer="2427" to-port="1"/>
		<edge from-layer="2426" from-port="1" to-layer="2427" to-port="2"/>
		<edge from-layer="2427" from-port="3" to-layer="2428" to-port="0"/>
		<edge from-layer="2428" from-port="1" to-layer="2430" to-port="0"/>
		<edge from-layer="2429" from-port="1" to-layer="2430" to-port="1"/>
		<edge from-layer="2422" from-port="2" to-layer="2431" to-port="0"/>
		<edge from-layer="2430" from-port="2" to-layer="2432" to-port="0"/>
		<edge from-layer="2431" from-port="1" to-layer="2432" to-port="1"/>
		<edge from-layer="2432" from-port="2" to-layer="2434" to-port="0"/>
		<edge from-layer="2433" from-port="1" to-layer="2434" to-port="1"/>
		<edge from-layer="2424" from-port="2" to-layer="2435" to-port="0"/>
		<edge from-layer="2434" from-port="2" to-layer="2435" to-port="1"/>
		<edge from-layer="2435" from-port="2" to-layer="2437" to-port="0"/>
		<edge from-layer="2436" from-port="1" to-layer="2437" to-port="1"/>
		<edge from-layer="2437" from-port="2" to-layer="2439" to-port="0"/>
		<edge from-layer="2438" from-port="1" to-layer="2439" to-port="1"/>
		<edge from-layer="2342" from-port="2" to-layer="2441" to-port="0"/>
		<edge from-layer="2440" from-port="1" to-layer="2441" to-port="1"/>
		<edge from-layer="2340" from-port="2" to-layer="2442" to-port="0"/>
		<edge from-layer="2441" from-port="2" to-layer="2442" to-port="1"/>
		<edge from-layer="2442" from-port="2" to-layer="2444" to-port="0"/>
		<edge from-layer="2443" from-port="1" to-layer="2444" to-port="1"/>
		<edge from-layer="2442" from-port="2" to-layer="2446" to-port="0"/>
		<edge from-layer="2445" from-port="1" to-layer="2447" to-port="0"/>
		<edge from-layer="2446" from-port="1" to-layer="2447" to-port="1"/>
		<edge from-layer="2447" from-port="2" to-layer="2449" to-port="0"/>
		<edge from-layer="2448" from-port="1" to-layer="2449" to-port="1"/>
		<edge from-layer="2444" from-port="2" to-layer="2450" to-port="0"/>
		<edge from-layer="2449" from-port="2" to-layer="2450" to-port="1"/>
		<edge from-layer="2450" from-port="2" to-layer="2452" to-port="0"/>
		<edge from-layer="2451" from-port="1" to-layer="2452" to-port="1"/>
		<edge from-layer="2452" from-port="2" to-layer="2454" to-port="0"/>
		<edge from-layer="2453" from-port="1" to-layer="2454" to-port="1"/>
		<edge from-layer="1085" from-port="4" to-layer="2457" to-port="0"/>
		<edge from-layer="2455" from-port="1" to-layer="2457" to-port="1"/>
		<edge from-layer="2456" from-port="1" to-layer="2457" to-port="2"/>
		<edge from-layer="2457" from-port="3" to-layer="2458" to-port="0"/>
		<edge from-layer="2458" from-port="1" to-layer="2460" to-port="0"/>
		<edge from-layer="2459" from-port="1" to-layer="2460" to-port="1"/>
		<edge from-layer="2452" from-port="2" to-layer="2461" to-port="0"/>
		<edge from-layer="2460" from-port="2" to-layer="2462" to-port="0"/>
		<edge from-layer="2461" from-port="1" to-layer="2462" to-port="1"/>
		<edge from-layer="2462" from-port="2" to-layer="2464" to-port="0"/>
		<edge from-layer="2463" from-port="1" to-layer="2464" to-port="1"/>
		<edge from-layer="2454" from-port="2" to-layer="2465" to-port="0"/>
		<edge from-layer="2464" from-port="2" to-layer="2465" to-port="1"/>
		<edge from-layer="2465" from-port="2" to-layer="2467" to-port="0"/>
		<edge from-layer="2466" from-port="1" to-layer="2467" to-port="1"/>
		<edge from-layer="2467" from-port="2" to-layer="2469" to-port="0"/>
		<edge from-layer="2468" from-port="1" to-layer="2469" to-port="1"/>
		<edge from-layer="2409" from-port="2" to-layer="2471" to-port="0"/>
		<edge from-layer="2470" from-port="1" to-layer="2471" to-port="1"/>
		<edge from-layer="2407" from-port="2" to-layer="2472" to-port="0"/>
		<edge from-layer="2471" from-port="2" to-layer="2472" to-port="1"/>
		<edge from-layer="2472" from-port="2" to-layer="2474" to-port="0"/>
		<edge from-layer="2473" from-port="1" to-layer="2474" to-port="1"/>
		<edge from-layer="2472" from-port="2" to-layer="2476" to-port="0"/>
		<edge from-layer="2475" from-port="1" to-layer="2477" to-port="0"/>
		<edge from-layer="2476" from-port="1" to-layer="2477" to-port="1"/>
		<edge from-layer="2477" from-port="2" to-layer="2479" to-port="0"/>
		<edge from-layer="2478" from-port="1" to-layer="2479" to-port="1"/>
		<edge from-layer="2474" from-port="2" to-layer="2480" to-port="0"/>
		<edge from-layer="2479" from-port="2" to-layer="2480" to-port="1"/>
		<edge from-layer="2480" from-port="2" to-layer="2482" to-port="0"/>
		<edge from-layer="2481" from-port="1" to-layer="2482" to-port="1"/>
		<edge from-layer="2482" from-port="2" to-layer="2484" to-port="0"/>
		<edge from-layer="2483" from-port="1" to-layer="2484" to-port="1"/>
		<edge from-layer="1085" from-port="4" to-layer="2487" to-port="0"/>
		<edge from-layer="2485" from-port="1" to-layer="2487" to-port="1"/>
		<edge from-layer="2486" from-port="1" to-layer="2487" to-port="2"/>
		<edge from-layer="2487" from-port="3" to-layer="2488" to-port="0"/>
		<edge from-layer="2488" from-port="1" to-layer="2490" to-port="0"/>
		<edge from-layer="2489" from-port="1" to-layer="2490" to-port="1"/>
		<edge from-layer="2482" from-port="2" to-layer="2491" to-port="0"/>
		<edge from-layer="2490" from-port="2" to-layer="2492" to-port="0"/>
		<edge from-layer="2491" from-port="1" to-layer="2492" to-port="1"/>
		<edge from-layer="2492" from-port="2" to-layer="2494" to-port="0"/>
		<edge from-layer="2493" from-port="1" to-layer="2494" to-port="1"/>
		<edge from-layer="2484" from-port="2" to-layer="2495" to-port="0"/>
		<edge from-layer="2494" from-port="2" to-layer="2495" to-port="1"/>
		<edge from-layer="2495" from-port="2" to-layer="2497" to-port="0"/>
		<edge from-layer="2496" from-port="1" to-layer="2497" to-port="1"/>
		<edge from-layer="2497" from-port="2" to-layer="2499" to-port="0"/>
		<edge from-layer="2498" from-port="1" to-layer="2499" to-port="1"/>
		<edge from-layer="2372" from-port="2" to-layer="2500" to-port="0"/>
		<edge from-layer="2439" from-port="2" to-layer="2500" to-port="1"/>
		<edge from-layer="2469" from-port="2" to-layer="2500" to-port="2"/>
		<edge from-layer="2499" from-port="2" to-layer="2500" to-port="3"/>
		<edge from-layer="2290" from-port="3" to-layer="2501" to-port="0"/>
		<edge from-layer="2500" from-port="4" to-layer="2502" to-port="0"/>
		<edge from-layer="2501" from-port="1" to-layer="2502" to-port="1"/>
		<edge from-layer="1230" from-port="2" to-layer="2503" to-port="0"/>
		<edge from-layer="1548" from-port="2" to-layer="2503" to-port="1"/>
		<edge from-layer="1866" from-port="2" to-layer="2503" to-port="2"/>
		<edge from-layer="2184" from-port="2" to-layer="2503" to-port="3"/>
		<edge from-layer="2502" from-port="2" to-layer="2503" to-port="4"/>
		<edge from-layer="2503" from-port="5" to-layer="2505" to-port="0"/>
		<edge from-layer="2504" from-port="1" to-layer="2505" to-port="1"/>
		<edge from-layer="985" from-port="1" to-layer="2506" to-port="0"/>
		<edge from-layer="335" from-port="1" to-layer="2508" to-port="0"/>
		<edge from-layer="2506" from-port="1" to-layer="2508" to-port="1"/>
		<edge from-layer="2507" from-port="1" to-layer="2508" to-port="2"/>
		<edge from-layer="1308" from-port="1" to-layer="2509" to-port="0"/>
		<edge from-layer="459" from-port="1" to-layer="2511" to-port="0"/>
		<edge from-layer="2509" from-port="1" to-layer="2511" to-port="1"/>
		<edge from-layer="2510" from-port="1" to-layer="2511" to-port="2"/>
		<edge from-layer="1626" from-port="1" to-layer="2512" to-port="0"/>
		<edge from-layer="583" from-port="1" to-layer="2514" to-port="0"/>
		<edge from-layer="2512" from-port="1" to-layer="2514" to-port="1"/>
		<edge from-layer="2513" from-port="1" to-layer="2514" to-port="2"/>
		<edge from-layer="1944" from-port="1" to-layer="2515" to-port="0"/>
		<edge from-layer="707" from-port="1" to-layer="2517" to-port="0"/>
		<edge from-layer="2515" from-port="1" to-layer="2517" to-port="1"/>
		<edge from-layer="2516" from-port="1" to-layer="2517" to-port="2"/>
		<edge from-layer="2262" from-port="1" to-layer="2518" to-port="0"/>
		<edge from-layer="831" from-port="1" to-layer="2520" to-port="0"/>
		<edge from-layer="2518" from-port="1" to-layer="2520" to-port="1"/>
		<edge from-layer="2519" from-port="1" to-layer="2520" to-port="2"/>
		<edge from-layer="2508" from-port="3" to-layer="2521" to-port="0"/>
		<edge from-layer="2511" from-port="3" to-layer="2521" to-port="1"/>
		<edge from-layer="2514" from-port="3" to-layer="2521" to-port="2"/>
		<edge from-layer="2517" from-port="3" to-layer="2521" to-port="3"/>
		<edge from-layer="2520" from-port="3" to-layer="2521" to-port="4"/>
		<edge from-layer="985" from-port="1" to-layer="2522" to-port="0"/>
		<edge from-layer="379" from-port="1" to-layer="2524" to-port="0"/>
		<edge from-layer="2522" from-port="1" to-layer="2524" to-port="1"/>
		<edge from-layer="2523" from-port="1" to-layer="2524" to-port="2"/>
		<edge from-layer="1308" from-port="1" to-layer="2525" to-port="0"/>
		<edge from-layer="503" from-port="1" to-layer="2527" to-port="0"/>
		<edge from-layer="2525" from-port="1" to-layer="2527" to-port="1"/>
		<edge from-layer="2526" from-port="1" to-layer="2527" to-port="2"/>
		<edge from-layer="1626" from-port="1" to-layer="2528" to-port="0"/>
		<edge from-layer="627" from-port="1" to-layer="2530" to-port="0"/>
		<edge from-layer="2528" from-port="1" to-layer="2530" to-port="1"/>
		<edge from-layer="2529" from-port="1" to-layer="2530" to-port="2"/>
		<edge from-layer="1944" from-port="1" to-layer="2531" to-port="0"/>
		<edge from-layer="751" from-port="1" to-layer="2533" to-port="0"/>
		<edge from-layer="2531" from-port="1" to-layer="2533" to-port="1"/>
		<edge from-layer="2532" from-port="1" to-layer="2533" to-port="2"/>
		<edge from-layer="2262" from-port="1" to-layer="2534" to-port="0"/>
		<edge from-layer="875" from-port="1" to-layer="2536" to-port="0"/>
		<edge from-layer="2534" from-port="1" to-layer="2536" to-port="1"/>
		<edge from-layer="2535" from-port="1" to-layer="2536" to-port="2"/>
		<edge from-layer="2524" from-port="3" to-layer="2537" to-port="0"/>
		<edge from-layer="2527" from-port="3" to-layer="2537" to-port="1"/>
		<edge from-layer="2530" from-port="3" to-layer="2537" to-port="2"/>
		<edge from-layer="2533" from-port="3" to-layer="2537" to-port="3"/>
		<edge from-layer="2536" from-port="3" to-layer="2537" to-port="4"/>
		<edge from-layer="2537" from-port="5" to-layer="2538" to-port="0"/>
		<edge from-layer="2538" from-port="1" to-layer="2541" to-port="0"/>
		<edge from-layer="2539" from-port="1" to-layer="2541" to-port="1"/>
		<edge from-layer="2540" from-port="1" to-layer="2541" to-port="2"/>
		<edge from-layer="2541" from-port="3" to-layer="2543" to-port="0"/>
		<edge from-layer="2542" from-port="1" to-layer="2543" to-port="1"/>
		<edge from-layer="2543" from-port="2" to-layer="2545" to-port="0"/>
		<edge from-layer="2544" from-port="1" to-layer="2545" to-port="1"/>
		<edge from-layer="2537" from-port="5" to-layer="2546" to-port="0"/>
		<edge from-layer="2545" from-port="2" to-layer="2546" to-port="1"/>
		<edge from-layer="2521" from-port="5" to-layer="2547" to-port="0"/>
		<edge from-layer="2546" from-port="2" to-layer="2548" to-port="0"/>
		<edge from-layer="2547" from-port="1" to-layer="2548" to-port="1"/>
		<edge from-layer="2521" from-port="5" to-layer="2549" to-port="0"/>
		<edge from-layer="2548" from-port="2" to-layer="2549" to-port="1"/>
		<edge from-layer="2549" from-port="2" to-layer="2550" to-port="0"/>
		<edge from-layer="2550" from-port="1" to-layer="2553" to-port="0"/>
		<edge from-layer="2551" from-port="1" to-layer="2553" to-port="1"/>
		<edge from-layer="2552" from-port="1" to-layer="2553" to-port="2"/>
		<edge from-layer="2553" from-port="3" to-layer="2555" to-port="0"/>
		<edge from-layer="2554" from-port="1" to-layer="2555" to-port="1"/>
		<edge from-layer="2549" from-port="2" to-layer="2556" to-port="0"/>
		<edge from-layer="2556" from-port="1" to-layer="2559" to-port="0"/>
		<edge from-layer="2557" from-port="1" to-layer="2559" to-port="1"/>
		<edge from-layer="2558" from-port="1" to-layer="2559" to-port="2"/>
		<edge from-layer="2559" from-port="3" to-layer="2561" to-port="0"/>
		<edge from-layer="2560" from-port="1" to-layer="2561" to-port="1"/>
		<edge from-layer="2555" from-port="2" to-layer="2563" to-port="0"/>
		<edge from-layer="2561" from-port="2" to-layer="2563" to-port="1"/>
		<edge from-layer="2562" from-port="1" to-layer="2563" to-port="2"/>
		<edge from-layer="2505" from-port="2" to-layer="2564" to-port="0"/>
		<edge from-layer="2563" from-port="3" to-layer="2564" to-port="1"/>
		<edge from-layer="2564" from-port="2" to-layer="2566" to-port="0"/>
		<edge from-layer="2565" from-port="1" to-layer="2566" to-port="1"/>
		<edge from-layer="2559" from-port="3" to-layer="2569" to-port="0"/>
		<edge from-layer="2568" from-port="1" to-layer="2569" to-port="1"/>
		<edge from-layer="2567" from-port="1" to-layer="2570" to-port="0"/>
		<edge from-layer="2569" from-port="2" to-layer="2570" to-port="1"/>
		<edge from-layer="2570" from-port="2" to-layer="2571" to-port="0"/>
		<edge from-layer="2571" from-port="1" to-layer="2573" to-port="0"/>
		<edge from-layer="2572" from-port="1" to-layer="2573" to-port="1"/>
		<edge from-layer="2573" from-port="2" to-layer="2575" to-port="0"/>
		<edge from-layer="2574" from-port="1" to-layer="2575" to-port="1"/>
		<edge from-layer="2575" from-port="2" to-layer="2577" to-port="0"/>
		<edge from-layer="2576" from-port="1" to-layer="2577" to-port="1"/>
		<edge from-layer="2549" from-port="2" to-layer="2578" to-port="0"/>
		<edge from-layer="2577" from-port="2" to-layer="2579" to-port="0"/>
		<edge from-layer="2578" from-port="1" to-layer="2579" to-port="1"/>
		<edge from-layer="2579" from-port="2" to-layer="2581" to-port="0"/>
		<edge from-layer="2580" from-port="1" to-layer="2581" to-port="1"/>
		<edge from-layer="2581" from-port="2" to-layer="2582" to-port="0"/>
		<edge from-layer="2566" from-port="2" to-layer="2584" to-port="0"/>
		<edge from-layer="2584" from-port="1" to-layer="2585" to-port="0"/>
		<edge from-layer="2585" from-port="1" to-layer="2587" to-port="0"/>
		<edge from-layer="2586" from-port="1" to-layer="2587" to-port="1"/>
		<edge from-layer="2583" from-port="1" to-layer="2589" to-port="0"/>
		<edge from-layer="2587" from-port="2" to-layer="2589" to-port="1"/>
		<edge from-layer="2588" from-port="1" to-layer="2589" to-port="2"/>
		<edge from-layer="2566" from-port="2" to-layer="2590" to-port="0"/>
		<edge from-layer="2589" from-port="3" to-layer="2590" to-port="1"/>
		<edge from-layer="2590" from-port="2" to-layer="2592" to-port="0"/>
		<edge from-layer="2591" from-port="1" to-layer="2592" to-port="1"/>
		<edge from-layer="2592" from-port="2" to-layer="2594" to-port="0"/>
		<edge from-layer="2593" from-port="1" to-layer="2594" to-port="1"/>
		<edge from-layer="2582" from-port="1" to-layer="2595" to-port="0"/>
		<edge from-layer="2594" from-port="2" to-layer="2595" to-port="1"/>
		<edge from-layer="2595" from-port="2" to-layer="2597" to-port="0"/>
		<edge from-layer="2596" from-port="1" to-layer="2597" to-port="1"/>
		<edge from-layer="2566" from-port="2" to-layer="2598" to-port="0"/>
		<edge from-layer="2597" from-port="2" to-layer="2598" to-port="1"/>
		<edge from-layer="2549" from-port="2" to-layer="2600" to-port="0"/>
		<edge from-layer="2599" from-port="1" to-layer="2600" to-port="1"/>
		<edge from-layer="2600" from-port="2" to-layer="2602" to-port="0"/>
		<edge from-layer="2601" from-port="1" to-layer="2602" to-port="1"/>
		<edge from-layer="2598" from-port="2" to-layer="2603" to-port="0"/>
		<edge from-layer="2602" from-port="2" to-layer="2603" to-port="1"/>
		<edge from-layer="2603" from-port="2" to-layer="2606" to-port="0"/>
		<edge from-layer="2604" from-port="1" to-layer="2606" to-port="1"/>
		<edge from-layer="2605" from-port="1" to-layer="2606" to-port="2"/>
		<edge from-layer="2606" from-port="4" to-layer="2608" to-port="0"/>
		<edge from-layer="2607" from-port="1" to-layer="2608" to-port="1"/>
		<edge from-layer="2608" from-port="2" to-layer="2610" to-port="0"/>
		<edge from-layer="2609" from-port="1" to-layer="2610" to-port="1"/>
		<edge from-layer="2606" from-port="3" to-layer="2612" to-port="0"/>
		<edge from-layer="2611" from-port="1" to-layer="2612" to-port="1"/>
		<edge from-layer="2612" from-port="2" to-layer="2616" to-port="0"/>
		<edge from-layer="2608" from-port="2" to-layer="2616" to-port="1"/>
		<edge from-layer="2613" from-port="1" to-layer="2616" to-port="2"/>
		<edge from-layer="2614" from-port="1" to-layer="2616" to-port="3"/>
		<edge from-layer="2615" from-port="1" to-layer="2616" to-port="4"/>
		<edge from-layer="2616" from-port="5" to-layer="2620" to-port="0"/>
		<edge from-layer="2617" from-port="1" to-layer="2620" to-port="1"/>
		<edge from-layer="2618" from-port="1" to-layer="2620" to-port="2"/>
		<edge from-layer="2619" from-port="1" to-layer="2620" to-port="3"/>
		<edge from-layer="2620" from-port="4" to-layer="2622" to-port="0"/>
		<edge from-layer="2621" from-port="1" to-layer="2622" to-port="1"/>
		<edge from-layer="2622" from-port="2" to-layer="2623" to-port="0"/>
		<edge from-layer="2610" from-port="2" to-layer="2625" to-port="0"/>
		<edge from-layer="2623" from-port="1" to-layer="2625" to-port="1"/>
		<edge from-layer="2624" from-port="1" to-layer="2625" to-port="2"/>
		<edge from-layer="2625" from-port="3" to-layer="2626" to-port="0"/>
		<edge from-layer="2626" from-port="1" to-layer="2629" to-port="0"/>
		<edge from-layer="2627" from-port="1" to-layer="2629" to-port="1"/>
		<edge from-layer="2628" from-port="1" to-layer="2629" to-port="2"/>
		<edge from-layer="2629" from-port="3" to-layer="2631" to-port="0"/>
		<edge from-layer="2630" from-port="1" to-layer="2631" to-port="1"/>
		<edge from-layer="2631" from-port="2" to-layer="2633" to-port="0"/>
		<edge from-layer="2632" from-port="1" to-layer="2633" to-port="1"/>
		<edge from-layer="2633" from-port="2" to-layer="2634" to-port="0"/>
		<edge from-layer="2625" from-port="3" to-layer="2635" to-port="0"/>
		<edge from-layer="2634" from-port="1" to-layer="2635" to-port="1"/>
		<edge from-layer="2635" from-port="2" to-layer="2636" to-port="0"/>
		<edge from-layer="2622" from-port="2" to-layer="2638" to-port="0"/>
		<edge from-layer="2635" from-port="3" to-layer="2638" to-port="1"/>
		<edge from-layer="2637" from-port="1" to-layer="2638" to-port="2"/>
		<edge from-layer="2638" from-port="3" to-layer="2639" to-port="0"/>
		<edge from-layer="2566" from-port="2" to-layer="2641" to-port="0"/>
		<edge from-layer="2639" from-port="1" to-layer="2641" to-port="1"/>
		<edge from-layer="2640" from-port="1" to-layer="2641" to-port="2"/>
		<edge from-layer="2638" from-port="3" to-layer="2642" to-port="0"/>
		<edge from-layer="2603" from-port="2" to-layer="2644" to-port="0"/>
		<edge from-layer="2642" from-port="1" to-layer="2644" to-port="1"/>
		<edge from-layer="2643" from-port="1" to-layer="2644" to-port="2"/>
		<edge from-layer="2644" from-port="3" to-layer="2648" to-port="0"/>
		<edge from-layer="2645" from-port="1" to-layer="2648" to-port="1"/>
		<edge from-layer="2646" from-port="1" to-layer="2648" to-port="2"/>
		<edge from-layer="2647" from-port="1" to-layer="2648" to-port="3"/>
		<edge from-layer="2648" from-port="4" to-layer="2650" to-port="0"/>
		<edge from-layer="2649" from-port="1" to-layer="2650" to-port="1"/>
		<edge from-layer="2650" from-port="2" to-layer="2652" to-port="0"/>
		<edge from-layer="2651" from-port="1" to-layer="2652" to-port="1"/>
		<edge from-layer="2641" from-port="3" to-layer="2653" to-port="0"/>
		<edge from-layer="2652" from-port="2" to-layer="2653" to-port="1"/>
		<edge from-layer="2638" from-port="3" to-layer="2654" to-port="0"/>
		<edge from-layer="2581" from-port="2" to-layer="2656" to-port="0"/>
		<edge from-layer="2654" from-port="1" to-layer="2656" to-port="1"/>
		<edge from-layer="2655" from-port="1" to-layer="2656" to-port="2"/>
		<edge from-layer="2656" from-port="3" to-layer="2657" to-port="0"/>
		<edge from-layer="2657" from-port="1" to-layer="2659" to-port="0"/>
		<edge from-layer="2658" from-port="1" to-layer="2659" to-port="1"/>
		<edge from-layer="2653" from-port="2" to-layer="2660" to-port="0"/>
		<edge from-layer="2659" from-port="2" to-layer="2660" to-port="1"/>
		<edge from-layer="2660" from-port="2" to-layer="2664" to-port="0"/>
		<edge from-layer="2661" from-port="1" to-layer="2664" to-port="1"/>
		<edge from-layer="2662" from-port="1" to-layer="2664" to-port="2"/>
		<edge from-layer="2663" from-port="1" to-layer="2664" to-port="3"/>
		<edge from-layer="2664" from-port="4" to-layer="2665" to-port="0"/>
		<edge from-layer="2660" from-port="2" to-layer="2668" to-port="0"/>
		<edge from-layer="2666" from-port="1" to-layer="2668" to-port="1"/>
		<edge from-layer="2667" from-port="1" to-layer="2668" to-port="2"/>
		<edge from-layer="2668" from-port="3" to-layer="2669" to-port="0"/>
		<edge from-layer="2669" from-port="1" to-layer="2671" to-port="0"/>
		<edge from-layer="2670" from-port="1" to-layer="2671" to-port="1"/>
		<edge from-layer="2671" from-port="2" to-layer="2672" to-port="0"/>
	</edges>
	<meta_data>
		<MO_version value="2021.2.0-1867-8f507a07f5f-releases/2021/2"/>
		<cli_parameters>
			<caffe_parser_path value="DIR"/>
			<data_type value="FP16"/>
			<disable_nhwc_to_nchw value="False"/>
			<disable_omitting_optional value="False"/>
			<disable_resnet_optimization value="False"/>
			<disable_weights_compression value="False"/>
			<enable_concat_optimization value="False"/>
			<enable_flattening_nested_params value="False"/>
			<enable_ssd_gluoncv value="False"/>
			<extensions value="DIR"/>
			<framework value="onnx"/>
			<freeze_placeholder_with_value value="{}"/>
			<generate_deprecated_IR_V7 value="False"/>
			<input value="image"/>
			<input_model value="DIR/model.onnx"/>
			<input_model_is_text value="False"/>
			<input_shape value="[1,3,480,864]"/>
			<k value="DIR/CustomLayersMapping.xml"/>
			<keep_shape_ops value="True"/>
			<legacy_mxnet_model value="False"/>
			<log_level value="ERROR"/>
			<mean_scale_values value="{'image': {'mean': None, 'scale': array([255.])}}"/>
			<mean_values value="()"/>
			<model_name value="person-detection-0203"/>
			<output value="['boxes', 'labels']"/>
			<output_dir value="DIR"/>
			<placeholder_data_types value="{}"/>
			<placeholder_shapes value="{'image': array([  1,   3, 480, 864])}"/>
			<progress value="False"/>
			<remove_memory value="False"/>
			<remove_output_softmax value="False"/>
			<reverse_input_channels value="True"/>
			<save_params_from_nd value="False"/>
			<scale_values value="image[255.0]"/>
			<silent value="False"/>
			<static_shape value="False"/>
			<stream_output value="False"/>
			<unset unset_cli_parameters="batch, counts, disable_fusing, disable_gfusing, finegrain_fusing, input_checkpoint, input_meta_graph, input_proto, input_symbol, mean_file, mean_file_offsets, move_to_preprocess, nd_prefix_name, pretrained_model_name, saved_model_dir, saved_model_tags, scale, tensorboard_logdir, tensorflow_custom_layer_libraries, tensorflow_custom_operations_config_update, tensorflow_object_detection_api_pipeline_config, tensorflow_use_custom_operations_config, transformations_config"/>
		</cli_parameters>
	</meta_data>
</net>
